Model/[KEY]NOSU_1.0.pth (torch, 32192 bytes, 18 tensors)

key_encoder.lstm.weight_ih_l0 f4 [64, 4]
-0.2994813 -0.22539054 0.06374233 -0.16652669 -0.35867944 1.0696242 0.29369 -0.6050731
0.48025054 -0.07631522 0.015962997 0.87986094 0.07704709 0.01050504 0.47400963 0.3221202
0.008466101 -0.6380494 0.036557313 -0.4273393 0.104587935 -0.16420938 0.010002958 0.6505183
0.23577085 0.2625061 -0.062049482 0.4528804 0.41828626 -0.3855865 -0.53014874 0.55654675
0.30352005 0.9462434 -0.3008706 -0.92954284 -0.08691783 -0.13268147 0.16851243 0.44847223
-0.026342578 0.41474572 -0.016960297 1.3636119 -0.009060423 0.39740583 0.060957786 -0.035167873
0.40851954 0.6640694 0.0029036538 1.1421053 0.16829923 0.1441725 0.10298978 0.50861645
0.65009063 -0.5192853 -0.1543001 0.1143552 -0.4069714 1.4146316 0.46274525 -0.66628736
0.45377263 0.0045563015 0.012448223 0.17250411 0.45455867 -1.1316038 -0.06354576 -0.043952662
-0.16687325 1.0049613 -0.0016080381 0.78315455 0.24777439 0.017466126 0.23457837 0.4992684
-0.11966091 0.31577122 0.049508635 -0.25017282 0.15136172 -0.05205248 0.0114185065 0.46729863
0.30265704 0.30669218 -0.04654784 0.3829397 -0.058615062 1.1285256 0.0013085929 0.98447645
-0.8503005 0.49003932 0.08688252 0.64305997 0.09070631 -0.68495697 0.042643923 0.42639038
-0.28856635 0.08455867 -0.152012 0.6996825 0.5837826 -0.034942616 0.036217403 0.13478039
-1.0035505 0.23054715 0.43162188 0.18057357 0.6700953 0.20491488 0.06294461 0.5026453
0.44307098 -0.8267892 -0.03984559 -0.18588836 0.28380254 0.46218595 0.13416532 0.7768969
-0.2995665 0.42686552 0.012905966 0.7461054 -0.09448564 1.0946182 0.18122774 -0.8861486
0.12524067 0.040625356 0.575017 1.7239445 -0.13951735 0.2703742 0.20004322 0.5695161
-0.2943966 0.18301661 -0.1388165 0.21689484 -0.042412724 0.09779577 0.014682667 0.84177244
0.068530545 -0.18730356 0.043164067 -0.6872356 0.016844878 -0.7481889 0.1794173 -0.087226965
-0.0077222367 0.25872296 -0.12098403 -0.2963763 -0.11439342 0.0025262937 0.18062319 0.20092852
-0.03587646 0.0015605583 0.25971285 2.1013882 0.26190403 0.5084045 0.030175429 0.17168376
0.15298074 0.26794374 -0.23941724 -2.9540112 0.28004333 0.0813475 0.035715796 0.23387082
-0.28869924 0.020837024 -0.06381051 1.0034862 0.33603224 -0.4672494 0.019613713 0.24092844
0.14659864 -0.5401131 0.04452298 -0.1491868 0.1885032 0.26990244 0.16197199 -0.36985388
0.68567395 0.28960544 -0.04711646 0.8141628 0.43532306 -0.81118965 0.19357297 0.05611613
0.3853693 -0.322609 -0.06665129 -0.3167816 0.06582502 -0.63829213 0.055781897 0.774811
-0.3622549 0.6513592 0.07190622 0.44503447 -0.48765057 1.4089824 0.079844296 0.15617603
0.93056697 -0.1636953 0.025424127 0.109612115 -0.11844255 -0.161428 -0.03662405 -0.3696157
0.3959688 0.46681455 -0.02747311 1.0775899 0.4761098 -0.18766363 0.11301537 -0.50868803
-0.21542957 0.7954021 0.042211853 1.3139392 0.2849178 -0.53770053 0.020314604 -0.3225743
0.24252868 0.53105825 -0.05583764 -0.11769546 -0.42827943 2.2499309 0.19149236 -0.37635255
00000000: 9d55 99be c7cc 66be 578b 823d f985 2abe
00000010: d5a4 b7be 72e9 883f 895e 963e 12e6 1abf
00000020: 66e3 f53e 274b 9cbd d5c4 823c 913e 613f
00000030: ddca 9d3d 551d 2c3c 64b1 f23e f0ec a43e
00000040: 67b5 0a3c 3557 23bf 1fbd 153d 37cc dabe
00000050: 3332 d63d 8126 28be 72e3 233c 5e88 263f
00000060: ea6d 713e 3367 863e 9927 7ebd f1df e73e
00000070: 9e29 d63e 986b c5be d4b7 07bf d979 0e3f
00000080: fb66 9b3e 023d 723f b60b 9abe 85f6 6dbf
00000090: fa01 b2bd a7dd 07be 868e 2c3e 279e e53e
000000a0: 64cc d7bc 8d59 d43e 52f0 8abc d68a ae3f
000000b0: 2b72 14bc c778 cb3e dfae 793d 300c 10bd
000000c0: 7929 d13e 7400 2a3f 3a4b 3e3b 8230 923f
000000d0: a256 2c3e f5a1 133e 4eec d23d b034 023f
000000e0: 576c 263f e2ef 04bf d800 1ebe 0f33 ea3d
000000f0: 8e5e d0be a612 b53f f2ec ec3e cf91 2abf
00000100: e354 e83e 074d 953b a2f3 4b3c eba4 303e
00000110: eabb e83e 65d8 90bf 4824 82bd b507 34bd
00000120: d2e0 2abe 92a2 803f cec4 d2ba d17c 483f
00000130: 92b8 7d3e 1f15 8f3c 5035 703e 1ca0 ff3e
00000140: c710 f5bd c4ac a13e 91c9 4a3d a716 80be
00000150: 91fe 1a3e fb34 55bd b014 3b3c c441 ef3e
00000160: ddf5 9a3e c206 9d3e f3a8 3ebd ac10 c43e
00000170: 5916 70bd 8773 903f 1785 ab3a a606 7c3f
00000180: 4bad 59bf 6fe6 fa3e 76ef b13d 949f 243f
00000190: 3bc4 b93d 5759 2fbf 65ab 2e3d d74f da3e
000001a0: f8be 93be 192d ad3d 09a9 1bbe 641e 333f
000001b0: c772 153f fd1f 0fbd b358 143d df03 0a3e
000001c0: 5874 80bf 8d14 6c3e 8bfd dc3e 47e8 383e
000001d0: 5e8b 2b3f 35d5 513e 1be9 803d 5dad 003f
000001e0: 33da e23e 75a8 53bf 2135 23bd 8559 3ebe
000001f0: 914e 913e a3a3 ec3e a262 093e b7e2 463f
00000200: c860 99be 1e8e da3e 8b73 533c c300 3f3f
00000210: b081 c1bd 731c 8c3f c493 393e a2da 62bf
00000220: 173f 003e c666 263d 5034 133f 37aa dc3f
00000230: a3dd 0ebe 7d6e 8a3e 21d8 4c3e cfcb 113f
00000240: 27bb 96be b568 3b3e ea25 0ebe ae19 5e3e
00000250: f7b8 2dbd 2649 c83d 928f 703c 667e 573f
00000260: be59 8c3d 81cc 3fbe cecc 303d acee 2fbf
00000270: 45fe 893c 4f89 3fbf 2bb9 373e 0da4 b2bd
00000280: d10a fdbb 5677 843e 7ac6 f7bd a2be 97be
00000290: 1947 eabd 2d90 253b 49f5 383e 35c0 4d3e
000002a0: 32f3 12bd a68b cc3a 15f9 843e 257d 0640
000002b0: 4918 863e cc26 023f 7632 f73c decd 2f3e
000002c0: fca6 1c3e ec2f 893e cb29 75be 850e 3dc0
000002d0: d761 8f3e 8599 a63d ba4a 123d d57b 6f3e
000002e0: 63d0 93be 68b2 aa3c 16af 82bd 3c72 803f
000002f0: 6b0c ac3e 503b efbe f0ac a03c f2b5 763e
00000300: f41d 163e da44 0abf ba5d 363d 6dc4 18be
00000310: fc06 413e a730 8a3e fcdb 253e 7d5d bdbe
00000320: 5488 2f3f 2a47 943e 30fd 40bd f96c 503f
00000330: aae2 de3e 20aa 4fbf fe37 463e 07da 653d
00000340: 204f c53e 022d a5be 7980 88bd 3331 a2be
00000350: 45cf 863d 1d67 23bf 8f7b 643d 045a 463f
00000360: 7979 b9be 7abf 263f 9143 933d 8fdb e33e
00000370: 56ad f9be 8959 b43f 6885 a33d 9cec 1f3e
00000380: a339 6e3f be9f 27be 4246 d03c 517c e03d
00000390: 0292 f2bd 624d 25be 1a03 16bd 453e bdbe
000003a0: 6cbc ca3e 5102 ef3e 4a0f e1bc 77ee 893f
000003b0: aac4 f33e e52a 40be 9a74 e73d 6139 02bf
000003c0: 9299 5cbe 799f 4b3f 56e6 2c3d 292f a83f
000003d0: bfe0 913e bea6 09bf d06a a63c 7528 a5be
000003e0: 7059 783e 6ff3 073f 02b6 64bd 510a f1bd
000003f0: 7147 dbbe defe 0f40 9316 443e 48b1 c0be

key_encoder.lstm.weight_hh_l0 f4 [64, 16]
-0.24930422 -0.25355595 -0.8388103 -0.12778097 0.1808863 0.07087338 -0.03227477 0.6186444
-0.5007119 -0.4639169 -0.62279624 0.08333981 -0.093619645 -0.005604911 -0.20851652 0.34918022
-0.372152 -0.61848193 0.48188367 0.5099331 0.096494615 0.25331336 0.018491996 0.04642269
-0.5145289 -0.23890965 0.72090226 0.2952477 -0.41668573 0.4004053 0.073151 -0.3141419
-0.119589515 0.3649448 0.047990616 0.16644089 -0.13148099 0.28121594 -0.60120606 -0.32034945
0.25892192 0.16339725 0.26843163 0.66572666 0.05583338 0.64024067 -0.35249463 0.06203041
-0.07249734 0.0034728295 -0.5809909 0.32077715 0.24252252 0.29990035 -0.34337765 0.15960087
0.020876044 -0.27105933 -0.579066 0.3412654 0.03257258 0.39521152 -0.12263804 0.16956653
0.025051635 0.018315172 -0.20042373 0.2352641 0.35286844 0.11386946 0.066309236 0.18897112
0.3069557 -0.28290004 0.44031218 -0.062428758 0.1714798 -0.12085446 0.76605713 0.1577696
0.024022317 0.018157875 -0.06384674 0.08747588 0.061216537 0.050375544 -0.038333323 0.26454884
0.022745349 -0.18406117 0.26864094 0.10463265 0.023375776 0.20746276 0.01702647 0.1176847
-0.12555334 0.11732535 0.1304345 0.046458513 -0.1267787 0.12653737 -0.4071998 -0.042160343
-0.20796677 0.10423398 0.07201715 0.5470917 0.052117832 0.27608222 -0.2241716 0.19386852
-0.11120903 -0.42321727 -1.0432974 0.34057808 0.09099467 -0.09265628 0.13255955 -0.6464068
0.81971055 0.17601174 -1.5010974 0.3443025 2.10408 0.26581803 -0.71987134 -1.0975654
-0.3888076 0.20217073 0.07502916 0.09487818 -0.41550085 0.30690244 -0.42506012 -0.15639207
-0.40989122 0.18122424 -0.2379181 0.32827574 -0.876631 0.563031 -1.342529 0.09104341
0.1777255 -0.43054855 -1.4535805 0.38801908 0.39369056 -0.2544429 -0.46208918 0.26278096
0.021999499 -0.6245299 0.6315964 0.38382125 1.9221559 0.41493845 -0.058743097 0.6308884
-0.409625 0.363311 -0.10878407 0.024238167 -0.2953994 0.16853197 -0.6094738 0.14849937
0.08515281 -0.09721249 -0.07130936 0.9340965 -0.15738672 0.8192889 -0.73574626 0.7816226
-0.109306455 0.094048865 0.30146366 0.04530545 -0.27293298 0.10309314 -0.4074534 -0.4039444
0.10505565 0.06180921 0.17334116 0.35407132 0.14390473 0.41277942 -0.33409962 0.031808432
-0.14753278 0.22433488 -0.06747996 0.18518218 -0.16016273 0.21927893 -0.6588531 -0.009064321
0.34835473 0.048805892 0.07532437 0.844412 -0.042764973 0.7550334 -0.44355485 0.34492758
-0.38524672 0.22301736 0.07811151 0.56855536 -0.044857737 0.582521 -0.72434944 -0.0530251
-0.2692932 0.0906699 0.064519994 0.86868745 0.21020326 0.5654477 -0.27735695 0.20250499
-0.17713527 0.76097214 -0.06192254 0.38047153 0.4264247 0.30941018 -0.15294918 -0.2344759
0.12831862 -0.4207768 0.13236642 0.2790879 -0.28611016 0.37769413 0.46766445 0.3422004
0.032439254 -0.2531688 -1.6477244 0.15275882 0.18148324 0.087712094 -0.11594386 0.34466392
0.10574209 -0.028671447 -0.33610776 -0.033173937 0.48111624 -0.030176366 -0.3927077 0.023592131
00000000: 9b49 7fbe 16d2 81be 46bc 56bf 04d9 02be
00000010: 423a 393e 1026 913d 8d32 04bd 7b5f 1e3f
00000020: a82e 00bf 8486 edbe 936f 1fbf 10ae aa3d
00000030: a8bb bfbd 67a9 b7bb 5b85 55be c0c7 b23e
00000040: b58a bebe d554 1ebf 75b9 f63e fa8a 023f
00000050: f89e c53d 4ab2 813e 877c 973c b825 3e3d
00000060: 2ab8 03bf bba4 74be 0d8d 383f b52a 973e
00000070: d557 d5be ec01 cd3e 31d0 953d 35d7 a0be
00000080: 59eb f4bd 0bda ba3e cf91 443d 7b6f 2a3e
00000090: f4a2 06be 89fb 8f3e a4e8 19bf d804 a4be
000000a0: 6a91 843e 9c51 273e df6f 893e 106d 2a3f
000000b0: 8bb1 643d d0e6 233f 2d7a b4be 9913 7e3d
000000c0: 7c79 94bd 6998 633b d2bb 14bf e73c a43e
000000d0: d357 783e 8a8c 993e 32cf afbe 696e 233e
000000e0: 3d04 ab3c 4ac8 8abe ab3d 14bf 57ba ae3e
000000f0: d36a 053d 2a59 ca3e a729 fbbd d9a2 2d3e
00000100: 1639 cd3c b309 963c e13b 4dbe 12e9 703e
00000110: 2cab b43e 6434 e93d 23cd 873d a581 413e
00000120: 4c29 9d3e 46d8 90be 9970 e13e 4cb5 7fbd
00000130: 6798 2f3e 8b82 f7bd 521c 443f 5b8e 213e
00000140: 73ca c43c d3bf 943c 14c2 82bd 8e26 b33d
00000150: 31be 7a3d 9656 4e3d 6703 1dbd f272 873e
00000160: 7454 ba3c 887a 3cbe 4e8b 893e a549 d63d
00000170: 8e7e bf3c 1e71 543e 187b 8b3c ad04 f13d
00000180: 0e91 00be 4648 f03d 9f90 053e 484b 3e3d
00000190: 47d2 01be 0393 013e 7e7c d0be 53b0 2cbd
000001a0: 3ef5 54be a078 d53d ba7d 933d 340e 0c3f
000001b0: 8279 553d a65a 8d3e 3d8d 65be 7885 463e
000001c0: 8fc1 e3bd efaf d8be c58a 85bf 4060 ae3e
000001d0: 6a5b ba3d 93c2 bdbd b1bd 073e eb7a 25bf
000001e0: 8dd8 513f 6c3c 343e f623 c0bf 6b48 b03e
000001f0: 3fa9 0640 4d19 883e 7d49 38bf 067d 8cbf
00000200: ca11 c7be d805 4f3e e3a8 993d 7e4f c23d
00000210: 87bc d4be 5122 9d3e 7ba1 d9be 3e25 20be
00000220: 43dd d1be d992 393e cda0 73be c213 a83e
00000230: e46a 60bf cd22 103f fed7 abbf f874 ba3d
00000240: acfd 353e dc70 dcbe ed0e babf 70aa c63e
00000250: cf91 c93e 5746 82be f496 ecbe 3a8b 863e
00000260: 4b38 b43c 31e1 1fbf 4db0 213f 3884 c43e
00000270: 3409 f63f d072 d43e 9a9c 70bd e781 213f
00000280: 5eba d1be e603 ba3e 2fca debd 1f8f c63c
00000290: 973e 97be a593 2c3e 7a06 1cbf 3810 183e
000002a0: 9964 ae3d 5817 c7bd a40a 92bd f320 6f3f
000002b0: fc29 21be ebbc 513f de59 3cbf 6b18 483f
000002c0: 10dc dfbd b19c c03d 7259 9a3e 3592 393d
000002d0: dfbd 8bbe 7f22 d33d bb9d d0be cdd1 cebe
000002e0: 6b27 d73d a72b 7d3d 5880 313e d648 b53e
000002f0: c35b 133e d357 d33e 1b0f abbe 8f49 023d
00000300: d512 17be 0bb8 653e ef32 8abd 66a0 3d3e
00000310: b301 24be a88a 603e 99aa 28bf 8582 14bc
00000320: 8d5b b23e b0e8 473d aa43 9a3d 632b 583f
00000330: 532a 2fbd de49 413f 9f19 e3be 599a b03e
00000340: 0f3f c5be aa5e 643e edf8 9f3d d88c 113f
00000350: bfbc 37bd 1920 153f f76e 39bf d930 59bd
00000360: cce0 89be 24b1 b93d 0f23 843d 4d62 5e3f
00000370: 863f 573e 2ec1 103f bb01 8ebe 785d 4f3e
00000380: f362 35be 12cf 423f 7da2 7dbd 2acd c23e
00000390: 5754 da3e 036b 9e3e b69e 1cbe 731a 70be
000003a0: f565 033e 0f70 d7be 108b 073e 9ce4 8e3e
000003b0: 087d 92be 2061 c13e b771 ef3e e434 af3e
000003c0: 06df 043d 579f 81be a2e8 d2bf cf6c 1c3e
000003d0: bed6 393e 66a2 b33d f973 edbd ca77 b03e
000003e0: 4f8f d83d 62e0 eabc 5116 acbe 65e1 07bd
000003f0: de54 f63e 6d34 f7bc fc10 c9be 4944 c13c

key_encoder.lstm.bias_ih_l0 f4 [64]
-0.21538827 -0.045990054 0.45008197 -0.118276864 -0.10660545 -0.044377577 0.0022276375 0.06305427
0.57632905 -0.2502264 0.36135888 -0.065470345 0.696839 0.011693987 0.07370222 -0.06185361
0.47909865 -0.03454867 -0.23491304 0.16603482 0.03719086 0.19355099 0.6647195 0.28570208
-0.46255046 -0.038122553 -0.40987292 0.67208683 -0.5219009 0.69602144 0.0680575 0.206952
0.058512535 0.022475002 0.09747018 -0.12982488 -0.1866553 -0.0457897 -0.31035468 0.025638107
0.11855617 -0.06655868 0.04092024 0.4206902 0.28850007 0.07388764 0.114311226 0.1045908
0.19530486 0.03616115 0.6695444 -0.15006045 0.36415625 -0.11891886 0.18533707 0.18547413
0.5043302 -0.100698255 0.7778558 0.35512167 0.39331764 0.12570313 0.36061165 -0.13486993
00000000: be8e 5cbe 1160 3cbd 2571 e63e 243b f2bd
00000010: f553 dabd 43c5 35bd 8efd 113b 9922 813d
00000020: 4d8a 133f ad1d 80be 0804 b93e 5115 86bd
00000030: 0a64 323f 2398 3f3c 31f1 963d 365a 7dbd
00000040: 6b4c f53e e882 0dbd 0b8d 70be 0805 2a3e
00000050: 7155 183d 3b32 463e 0f2b 2a3f 8b47 923e
00000060: 6ad3 ecbe 6526 1cbd ddda d1be e20d 2c3f
00000070: 4c9b 05bf 762e 323f bb61 8b3d 3aeb 533e
00000080: d7aa 6f3d 7f1d b83c 729e c73d d0f0 04be
00000090: 9122 3fbe fb8d 3bbd cfe6 9ebe 0207 d23c
000000a0: 94cd f23d eb4f 88bd fb9b 273d b564 d73e
000000b0: 48b6 933e 6752 973d 011c ea3d b433 d63d
000000c0: fffd 473e b71d 143d 4367 2b3f 72a9 19be
000000d0: b072 ba3e bb8b f3bd 00c9 3d3e eeec 3d3e
000000e0: c91b 013f e33a cebd 8f21 473f 82d2 b53e
000000f0: ee60 c93e 52b8 003e 17a2 b83e 581b 0abe

key_encoder.lstm.bias_hh_l0 f4 [64]
-0.18633762 0.22111867 0.5469484 -0.078021966 -0.1180086 -0.15340178 0.28580245 0.28787485
0.7076488 -0.0888846 0.11426403 -0.03228939 0.7219998 -0.13569157 0.2358922 0.0681309
0.1919944 -0.09398847 -0.072713025 0.23500335 -0.12206473 -0.018348671 0.5298836 0.20647745
-0.23527898 0.03808808 -0.32442626 0.45242652 -0.5983357 0.75211596 0.22757603 0.3327608
-0.04554275 0.24985546 -0.049450465 -0.025400866 -0.17784885 0.25487107 -0.29845402 0.0628283
-0.17096746 0.25903878 -0.062893875 0.42723635 0.5733681 0.15372686 -0.26595083 -0.03955762
0.16991493 0.37870958 0.8276983 0.12733187 0.059193775 -0.21886411 0.052966405 0.027248343
0.4855203 0.051581237 0.6562485 0.23470356 0.33879822 0.43345243 0.4865096 -0.02064553
00000000: 4acf 3ebe ef6c 623e cf04 0c3f fbc9 9fbd
00000010: 7eae f1bd 5b15 1dbe b354 923e 5564 933e
00000020: 7928 353f 2109 b6bd 4203 ea3d e141 04bd
00000030: fbd4 383f bbf2 0abe ba8d 713e 3788 8b3d
00000040: 2e9a 443e 077d c0bd 91ea 94bd b8a4 703e
00000050: 13fd f9bd f44f 96bc 74a6 073f d36e 533e
00000060: f9ec 70be 3f02 1c3d 331b a6be 73a4 e73e
00000070: 872c 19bf ac8a 403f b109 693e a05f aa3e
00000080: 098b 3abd 1cda 7f3e 928c 4abd 7a15 d0bc
00000090: 021e 36be 767e 823e f7ce 98be 20ac 803d
000000a0: 1812 2fbe bba0 843e 81ce 80bd b9be da3e
000000b0: 40c8 123f 936a 1d3e b52a 88be 2c07 22bd
000000c0: 2efe 2d3e 39e6 c13e 09e4 533f 4963 023e
000000d0: 2c75 723d ea1d 60be 4df3 583d eb37 df3c
000000e0: 1e96 f83e d946 533d e7ff 273f 2156 703e
000000f0: f676 ad3e 7aed dd3e c917 f93e d120 a9bc

key_encoder.lstm.weight_ih_l1 f4 [64, 16]
-0.1663187 -0.02098605 -1.0799108 0.15695417 -0.50365496 0.23630536 -0.468405 -0.016827282
0.20239441 0.15270841 -0.8983427 0.43086433 -0.23262371 0.58365077 -1.1652538 0.0474464
0.1390559 0.103457846 -0.25586802 0.111202255 -0.042567376 0.028231964 -0.26822534 0.08368684
0.15358673 -0.029088775 0.1629911 0.16471812 0.059295695 0.18789859 -0.12843259 0.114250064
0.092836305 -0.14851256 -0.10618262 0.2244708 0.0879902 0.0737353 -0.47584423 0.087372124
0.36011702 -0.18728425 0.62774277 0.19081396 -0.48326847 0.22412366 0.22664304 0.4926478
-0.09390208 -0.015798768 0.18154305 0.10643979 0.07672882 0.06732555 -0.079377376 0.04529957
-0.19592308 0.090393335 0.200068 0.07015902 -0.011789967 0.08470371 0.15987237 0.18137322
0.034124784 0.16575003 -1.4003348 -0.0005309596 -0.16977303 -0.26603165 -0.31958228 0.4477151
0.25353128 0.2238264 -1.1292728 0.22476722 1.5103402 0.15094785 -0.12583026 0.8485463
-0.06124021 -0.036611296 -0.09632289 -0.1430196 -0.026766336 -0.12509479 0.1483752 0.052601513
-0.018796146 -0.04584917 -0.17224388 -0.06506724 0.037797417 -0.07063415 -0.09135339 -0.05938828
-0.116609044 0.08002668 0.1832638 0.15806447 -0.044738103 0.1568852 -0.4695888 0.11503859
0.023613604 0.007714974 0.28060785 0.39669615 -0.06991216 0.39367697 -0.02178722 0.2902478
0.46987876 -0.07746818 -0.3400128 0.035944838 -0.44188643 -0.36475554 -0.8664925 -0.84849244
1.1040397 0.9089085 0.61381793 0.12973025 0.24885717 0.195046 -0.37620547 0.14051747
-0.07267437 -0.2500317 -0.547783 -0.092255846 -0.18247601 -0.038426537 -0.08000583 0.119755745
1.3250512 -0.1383098 -0.38662758 0.20882498 -0.37253007 0.027666014 -0.583891 0.12731917
-0.17221981 0.29248285 -0.35572913 0.21477595 -0.09576082 0.04981962 -0.24841078 0.026331238
0.3849018 -0.0972868 -0.21598308 0.22621681 -0.35626101 0.28324145 -0.2129647 0.10281897
-0.019526467 -0.023695305 -0.026537502 0.041906457 0.04978406 -0.03125783 0.10041138 0.053838793
-0.04003005 -0.078603946 -0.045935016 -0.06675252 -0.036920603 0.0024391087 0.062323157 0.047260225
0.038144 0.18171203 -0.1375267 0.16489121 0.023134762 0.13606125 -0.31743976 -0.10324277
0.1448425 0.027832603 0.26371345 0.29985195 0.03811498 0.276279 0.05106992 0.16440241
-0.25430143 -0.038207024 -0.079451315 0.05027448 0.033244573 0.23652436 -0.17555624 0.00426078
-0.48019192 0.047607277 -0.23696995 0.26762152 0.3690261 0.23296611 -0.19889133 0.20980619
-0.25395906 0.32450137 -0.15651658 0.08994494 0.03941799 0.075786546 -0.3112719 -0.012855959
-0.010579574 0.041218862 -0.19669937 0.33038104 0.21481691 0.32591563 -0.08263508 0.2882227
0.02388125 -0.089807324 -0.19264796 0.1526982 0.13591033 0.043849587 -0.0246523 0.13357775
0.20206162 -0.31284538 0.037365384 0.0035235237 -0.38027054 0.03392822 0.18684897 0.14204875
-0.04989286 -0.037385687 -0.09680776 0.06194817 0.10256699 0.033648446 0.039591387 0.43234578
0.47551948 -0.06767194 -0.034547422 0.005048064 -0.21976653 -0.05268283 0.19069055 0.4186119
00000000: 734f 2abe f0ea abbc 843a 8abf 98b8 203e
00000010: 88ef 00bf 08fa 713e c8d2 efbe 5ed9 89bc
00000020: 7b40 4f3e 985f 1c3e caf9 65bf 409a dc3e
00000030: e934 6ebe 236a 153f 0927 95bf 2857 423d
00000040: ab64 0e3e b5e1 d33d 2201 83be 02be e33d
00000050: 215b 2ebd b846 e73c d554 89be 0264 ab3d
00000060: d745 1d3e 954b eebc 24e7 263e deab 283e
00000070: 0be0 723d 7d68 403e d583 03be f0fb e93d
00000080: f620 be3d ad13 18be 4676 d9bd acdb 653e
00000090: 3534 b43d 8802 973d dba1 f3be 28f0 b23d
000000a0: 4261 b83e 71c7 3fbe c0b3 203f bc64 433e
000000b0: f76e f7be ac80 653e 1d15 683e 553c fc3e
000000c0: bc4f c0bd 6b6c 81bc 6ce6 393e 1bfd d93d
000000d0: 0024 9d3d fae1 893d 9b90 a2bd 0b8c 393d
000000e0: 0fa0 48be 2420 b93d a0de 4c3e 88af 8f3d
000000f0: b52a 41bc 2479 ad3d 95b5 233e e7b9 393e
00000100: 6ec6 0b3d 60ba 293e 2c3e b3bf 1830 0bba
00000110: fbd8 2dbe 4d35 88be 4aa0 a3be ea3a e53e
00000120: dace 813e bf32 653e 038c 90bf 6129 663e
00000130: d452 c13f 1392 1a3e a6d9 00be 553a 593f
00000140: 04d7 7abd baf5 15bd ef44 c5bd bb73 12be
00000150: 1345 dbbc d918 00be abef 173e af74 573d
00000160: 60fa 99bc 57cc 3bbd b360 30be f941 85bd
00000170: 77d1 1a3d a3a8 90bd 7c17 bbbd 2041 73bd
00000180: b9d0 eebd 07e5 a33d 81a9 3b3e a7db 213e
00000190: 4d3f 37bd 84a6 203e f16d f0be 5a99 eb3d
000001a0: 5171 c13c e5cd fc3b d5ab 8f3e c21b cb3e
000001b0: 1b2e 8fbd 0790 c93e 1d7b b2bc 5c9b 943e
000001c0: f393 f03e a3a7 9ebd 2816 aebe e53a 133d
000001d0: f03e e2be 3dc1 babe 74d2 5dbf cd36 59bf
000001e0: 2c51 8d3f 3aae 683f 2c23 1d3f 02d8 043e
000001f0: 6ad4 7e3e 23ba 473e 019e c0be d0e3 0f3e
00000200: 4dd6 94bd 2804 80be 823b 0cbf a2f0 bcbd
00000210: feda 3abe 2565 1dbd 19da a3bd 8042 f53d
00000220: 479b a93f 16a1 0dbe 0df4 c5be 37d6 553e
00000230: 43bc bebe d6a3 e23c e179 15bf f55f 023e
00000240: 645a 30be 50c0 953e 2122 b6be 3aee 5b3e
00000250: 401e c4bd a80f 4c3d 655f 7ebe 9cb4 d73c
00000260: d911 c53e 4d3e c7bd ab2a 5dbe 61a5 673e
00000270: d867 b6be 0605 913e 6b13 5abe c192 d23d
00000280: f8f5 9fbc a81c c2bc 2d65 d9bc 1ba6 2b3d
00000290: 5fea 4b3d 3608 00bd 7ba4 cd3d 1186 5c3d
000002a0: 8df6 23bd 1bfb a0bd 5b26 3cbd 8cb5 88bd
000002b0: 0f3a 17bd 74d9 1f3b 9146 7f3d f093 413d
000002c0: e23c 1c3d b812 3a3e cdd3 0cbe 3ed9 283e
000002d0: 1d85 bd3c a453 0b3e 7787 a2be f270 d3bd
000002e0: 9851 143e 3301 e43c 7305 873e 3286 993e
000002f0: 741e 1c3d 7174 8d3e b12e 513d 1b59 283e
00000300: cc33 82be f87e 1cbd 5fb7 a2bd 9dec 4d3d
00000310: 762b 083d 7133 723e 04c5 33be 039e 8b3b
00000320: b7db f5be d9ff 423d 40a8 72be b005 893e
00000330: fdf0 bc3e ab8e 6e3e 2baa 4bbe 6fd7 563e
00000340: ec06 82be 0b25 a63e e245 20be 0d35 b83d
00000350: c274 213d fa35 9b3d 085f 9fbe cda1 52bc
00000360: f355 2dbc 1cd5 283d 8f6b 49be b427 a93e
00000370: f7f8 5b3e 6ade a63e 953c a9bd ed91 933e
00000380: 9ca2 c33c e7ec b7bd 8245 45be eb5c 1c3e
00000390: 142c 0b3e a09b 333d 9ff3 c9bc 9bc8 083e
000003a0: 3ee9 4e3e 452d a0be 720c 193d ebea 663b
000003b0: d2b2 c2be 51f8 0a3d 5655 3f3e 3a75 113e
000003c0: 755c 4cbd bc21 19bd 2643 c6bd 5dbd 7d3d
000003d0: a40e d23d f4d2 093d 942a 223d 6d5c dd3e
000003e0: 4a77 f33e 9697 8abd 9981 0dbd 3b6a a53b
000003f0: 7a0a 61be f3c9 57bd 6244 433e 4d54 d63e

key_encoder.lstm.weight_hh_l1 f4 [64, 16]
-0.3936018 -0.5308295 -0.26251674 0.33492067 -0.3082684 -0.07189246 0.07409686 -0.61752325
-0.5723118 -0.11510443 0.0744613 -0.036133472 -0.054322027 -0.15627883 0.49830174 0.0010910736
0.26480293 -0.086363085 0.10561235 0.059148062 -0.03745707 -0.005280074 0.2116219 -0.07407659
0.06084822 0.06167361 -0.0056190677 0.013605427 -0.04835353 0.041216746 0.028346093 0.024672821
0.53775126 -0.221432 0.12762564 0.021886779 0.20422347 -0.022509601 0.15562893 -0.021502344
0.13650204 0.22976123 0.007590005 0.1268837 -0.2351365 0.018768629 0.097127 0.04582151
-0.028022774 -0.0726502 -0.012915999 -0.02176442 0.05004026 -0.013485349 0.027054233 0.048850924
0.02770913 0.03608657 0.005638867 -0.071304046 -0.078821085 -0.004376533 0.019276785 0.0486377
-0.0873486 -0.5008383 -0.45792955 -0.010224318 0.07104217 -0.06417932 -0.24310468 0.18180375
-0.087151945 -0.13840164 0.026036672 -0.20685561 -0.17302881 -0.041797347 0.18557827 0.19858317
0.035941023 0.026116112 0.034294873 0.013618265 -0.025878755 0.009602654 -0.0153824 0.0921515
0.0922874 0.006047362 -0.0035546182 0.062755555 -0.007681191 -0.026354503 -0.066251315 -0.04198354
-0.13833746 -0.2118755 -0.09692843 -0.038913794 0.16690165 -0.025120625 -0.105271794 -0.55571896
-0.07279635 -0.06158561 0.019138373 -0.13288319 -0.16804451 0.009124965 0.08196909 0.004461196
0.9366285 -0.56509954 -0.03872586 -0.19097123 0.1834198 0.057678998 -0.6534475 0.1655664
-0.784523 -0.552872 0.0438125 -0.23052299 -0.27580035 0.055853516 0.263346 0.33060348
0.5688736 -0.056872368 0.2513065 -0.123526976 0.52334106 -0.027276156 0.16957834 -0.5296784
-0.14237644 -0.09468924 0.01214124 -0.035074584 -0.5894641 -0.08627058 -0.33033404 0.0111288875
-0.009010428 -0.037827604 0.326565 -0.06630417 -0.100190535 -0.04350303 -0.05867844 -0.55127096
0.00094531407 0.00036939813 0.045468375 -0.03681387 -0.09946269 -0.111011416 0.0047539393 -0.14993897
0.14744262 0.060514074 0.10000987 0.018401762 0.08715331 -0.015291864 0.14902525 0.07746878
0.108682506 0.06593954 0.013060549 -0.036341455 -0.038414117 0.010008967 -0.038898923 -0.12310659
0.2270197 -0.05051834 0.14887959 0.019123144 0.039202906 0.0024699843 0.12593223 -0.059822734
-0.026287394 0.0075985254 0.019431517 -0.004024391 0.11115323 -0.007835884 0.14471287 -0.04019141
-0.94817835 -0.12382628 0.03013364 0.055051096 -0.37384528 -0.022583434 -0.50829124 -0.93944615
-0.37862402 -0.00069801253 0.057435315 -0.17821226 0.12241763 0.012232023 0.1077198 -0.020772453
-1.3451545 -0.45556918 -0.21455327 -0.08262189 -0.07794162 0.010434628 0.07877993 -0.6127329
0.043958098 -0.02845386 0.03376233 -0.228263 0.28319168 -0.14793372 0.26204178 0.20419157
0.381962 -0.14338472 0.18847777 0.011652134 0.20070131 -0.03516274 0.19410954 0.009255845
0.41912 0.12938464 0.006270741 -0.116652936 0.24265327 -0.0037524416 -0.051314853 -0.054894954
0.31730232 0.034430183 0.2862581 0.03180951 0.38315427 -0.022495251 0.5891878 -0.0655953
0.3314072 0.15396045 -0.010275105 -0.122740805 -0.044903833 0.0394547 -0.045690294 -0.056540947
00000000: 2d86 c9be 71e4 07bf 9868 86be b97a ab3e
00000010: 5bd5 9dbe 5b3c 93bd 18c0 973d 0116 1ebf
00000020: 0783 12bf dfbb ebbd 2b7f 983d b100 14bd
00000030: c680 5ebd 8f07 20be 6821 ff3e 5b02 8f3a
00000040: 4094 873e 21df b0bd 4a4b d83d 3d45 723d
00000050: 966c 19bd 7904 adbb 69b3 583e 78b5 97bd
00000060: fc3b 793d 789d 7c3d 2820 b8bb 4ce9 5e3c
00000070: 5a0e 46bd e4d2 283d 1136 e83c a81e ca3c
00000080: 11aa 093f 12bf 62be 4cb0 023e e74b b33c
00000090: f51f 513e 0e66 b8bc 315d 1f3e af25 b0bc
000000a0: 31c7 0b3e 8746 6b3e 94b5 f83b cded 013e
000000b0: 9fc7 70be abc0 993c 85ea c63d 56af 3b3d
000000c0: 0490 e5bc a1c9 94bd a09d 53bc 4c4b b2bc
000000d0: 04f7 4c3d a7f1 5cbc d7a0 dd3c e817 483d
000000e0: 42fe e23c 83cf 133d 3fc6 b83b db07 92bd
000000f0: f36c a1bd 0569 8fbb 59ea 9d3c 5338 473d
00000100: d3e3 b2bd f036 00bf be75 eabe e683 27bc
00000110: 8f7e 913d 7370 83bd 6ff0 78be c32a 3a3e
00000120: b87c b2bd 29b9 0dbe dc4a d53c f5d1 53be
00000130: 772e 31be b233 2bbd 3b08 3e3e 6359 4b3e
00000140: e536 133d 75f1 d53c c878 0c3d 251f 5f3c
00000150: afff d3bc 7354 1d3c 7606 7cbc edb9 bc3d
00000160: 2d01 bd3d f328 c63b 99f4 68bb fc85 803d
00000170: 80b2 fbbb 66e5 d7bc c5ae 87bd eff6 2bbd
00000180: 56a8 0dbe e4f5 58be 6a82 c6bd 1264 1fbd
00000190: 44e8 2a3e c5c9 cdbc bd98 d7bd 9943 0ebf
000001a0: 4116 95bd 3141 7cbd 14c8 9c3c 8812 08be
000001b0: dc13 2cbe e180 153c 69df a73d 392f 923b
000001c0: e3c6 6f3f 5daa 10bf 029f 1ebd f68d 43be
000001d0: 66d2 3b3e d040 6c3d 5648 27bf 3d8a 293e
000001e0: 80d6 48bf 0589 0dbf bc74 333d 380e 6cbe
000001f0: b435 8dbe a8c6 643d 49d5 863e dc44 a93e
00000200: b3a1 113f 00f3 68bd 3fab 803e b6fb fcbd
00000210: aef9 053f 3f72 dfbc f2a5 2d3e 0199 07bf
00000220: 21cb 11be 6fec c1bd 0dec 463c 5eaa 0fbd
00000230: 1fe7 16bf a1ae b0bd 8b21 a9be f055 363c
00000240: 79a0 13bc 1ef1 1abd 8733 a73e 7bca 87bd
00000250: b230 cdbd 3c30 32bd ce58 70bd 1820 0dbf
00000260: f4ce 773a c7ab c139 0c3d 3a3d 24ca 16bd
00000270: 18b3 cbbd f459 e3bd efc6 9b3b 9a89 19be
00000280: 33fb 163e 9bdd 773d fad1 cc3d 4bbf 963c
00000290: 6f7d b23d ba8a 7abc 139a 183e f4a7 9e3d
000002a0: ef94 de3d 4f0b 873d eafb 553c c7da 14bd
000002b0: 1f58 1dbd a6fc 233c 7a54 1fbd 4f1f fcbd
000002c0: da77 683e 52ec 4ebd e473 183e 24a8 9c3c
000002d0: 3a93 203d 76df 213b 61f4 003e af08 75bd
000002e0: a958 d7bc 0dfd f83b d82e 9f3c 0adf 83bb
000002f0: 4ea4 e33d 1462 00bc 9c2f 143e bf9f 24bd
00000300: d1bb 72bf a298 fdbd d3da f63c 427d 613d
00000310: a668 bfbe e500 b9bc 601f 02bf 8b7f 70bf
00000320: 02db c1be d4fa 36ba 4b41 6b3d 467d 36be
00000330: 18b6 fa3d d368 483c 339c dc3d fe2a aabc
00000340: 062e acbf 5d40 e9be dab3 5bbe aa35 a9bd
00000350: db9f 9fbd 01f6 2a3c 5f57 a13d 10dc 1cbf
00000360: 680d 343d 1218 e9bc 5e4a 0a3d c7bd 69be
00000370: 80fe 903e f07b 17be 572a 863e 9817 513e
00000380: 8690 c33e 72d3 12be 5100 413e 98e8 3e3c
00000390: a584 4d3e ce06 10bd a7c4 463e d4a5 173c
000003a0: e696 d63e 687d 043e ca7a cd3b bce7 eebd
000003b0: 197a 783e 86eb 75bb 862f 52bd 88d9 60bd
000003c0: 7375 a23e aa06 0d3d 6c90 923e b04a 023d
000003d0: cc2c c43e f647 b8bc 03d5 163f d456 86bd
000003e0: 34ae a93e cfa7 1d3e ea58 28bc 885f fbbd
000003f0: 15ed 37bd 409b 213d bf25 3bbd 7b97 67bd

key_encoder.lstm.bias_ih_l1 f4 [64]
0.46115845 0.21872863 0.09964432 0.07828635 -0.079073496 -0.29122034 0.69547635 0.23223208
0.48569757 0.23596075 -0.05757032 0.18186054 0.15425272 0.06748938 -0.11111222 -0.053292256
-0.1578591 -0.13102782 -0.08765488 -0.0016833633 0.04101574 -0.052018642 0.07177871 0.13167442
-0.059915356 0.32985353 -0.017410511 0.21763213 -0.2291906 -0.018973006 0.10346678 -0.011637502
-0.12970778 -0.037226208 0.11772496 0.09508853 -0.13811098 0.0648324 -0.017959595 -0.22281416
-0.2414767 -0.0999607 0.22600305 0.036852226 0.10876999 0.12050686 0.29496688 0.09920958
0.6289619 0.0011352552 -0.10277974 -0.2264859 0.12595142 -0.29212222 0.54618025 0.63112605
0.34754142 -0.06646875 -0.24007794 -0.11082024 0.20143908 -0.20870481 -0.024871197 -0.06650368
00000000: f61c ec3e 66fa 5f3e 5212 cc3d 9854 a03d
00000010: 49f1 a1bd d51a 95be bd0a 323f 3fce 6d3e
00000020: 5aad f83e b29f 713e dbce 6bbd a639 3a3e
00000030: 6df4 1d3e df37 8a3d ce8e e3bd fb48 5abd
00000040: d1a5 21be 282c 06be 6784 b3bd 4da4 dcba
00000050: 1f00 283d 8011 55bd b700 933d a9d5 063e
00000060: ce69 75bd 90e2 a83e 7da0 8ebc f5da 5e3e
00000070: f1b0 6abe 476d 9bbc 64e6 d33d 39ab 3ebc
00000080: 1ed2 04be 827a 18bd c919 f13d c6bd c23d
00000090: f76c 0dbe d9c6 843d 0020 93bc 6529 64be
000000a0: ab45 77be 32b8 ccbd 586d 673e 5cf2 163d
000000b0: cdc2 de3d 4dcc f63d e605 973e 642e cb3d
000000c0: a603 213f d8cc 943a 2f7e d2bd ebeb 67be
000000d0: 69f9 003e 0b91 95be 78d2 0b3f 7a91 213f
000000e0: f3f0 b13e c520 88bd fed6 75be b9f5 e2bd
000000f0: 0c46 4e3e b7b6 55be aebe cbbc 1533 88bd

key_encoder.lstm.bias_hh_l1 f4 [64]
0.40621102 0.10656636 0.11587181 0.063919455 0.12948838 -0.26003858 0.71651375 0.2640513
0.43703425 0.23548712 -0.22970311 0.35186467 0.28262442 0.08924528 -0.054909814 -0.02258715
-0.1971668 -0.1531473 -0.0833599 -0.002820741 -0.021626363 -0.12340811 0.14699379 0.3370347
-0.28377327 0.35692894 -0.08045241 0.24388936 -0.24755655 -0.024630664 0.10206016 -0.0493861
-0.3182159 -0.08585254 0.1619381 0.10605377 -0.23616892 0.07325958 0.1491147 -0.23306227
-0.41262117 -0.3234203 -0.0059964806 -0.18935353 0.08221815 0.03462082 0.07082609 -0.116389446
0.7161176 0.036398415 -0.10681686 -0.16668534 0.14200012 -0.1175235 0.52389944 0.7051975
0.24368829 0.022836668 -0.31374517 -0.206252 0.34188518 -0.17005762 0.09711814 -0.09069048
00000000: e4fa cf3e 773f da3d 334e ed3d 34e8 823d
00000010: 9a98 043e c723 85be 726d 373f bb31 873e
00000020: f4c2 df3e 8923 713e 4b37 6bbe 9b27 b43e
00000030: 26b4 903e 3bc6 b63d 1de9 60bd b008 b9bc
00000040: 18e6 49be a5d2 1cbe 98b8 aabd 2edc 38bb
00000050: c529 b1bc 64bd fcbd 8a85 163e d08f ac3e
00000060: bb4a 91be 64bf b63e 3cc4 a4bd 22be 793e
00000070: 777f 7dbe 3fc6 c9bc eb04 d13d 1449 4abd
00000080: 32ed a2be 75d3 afbd 1ad3 253e b832 d93d
00000090: 44d6 71be 1e09 963d 86b1 183e e0a7 6ebe
000000a0: 1543 d3be 5897 a5be 207e c4bb e4e5 41be
000000b0: fd61 a83d 90ce 0d3d 450d 913d 975d eebd
000000c0: 7c53 373f 8116 153d ccc2 dabd 90af 2abe
000000d0: 7b68 113e 29b0 f0bd 461e 063f d387 343f
000000e0: 6c89 793e f713 bb3c 35a3 a0be b933 53be
000000f0: 930b af3e 9623 2ebe e0e5 c63d eebb b9bd

key_decoder.lstm.weight_ih_l0 f4 [64, 2]
-0.19084558 -0.30750033 0.29161662 -0.17606768 0.18551968 0.07870848 -0.012285872 0.22621244
0.43874547 -0.1770031 0.17624247 -0.023401417 0.4909151 -0.1986861 0.30939138 0.44090727
0.17605653 -0.37200734 -0.24535148 0.62449485 -0.15895696 -0.015385641 0.16017942 0.6041437
-0.078482814 -0.09432874 0.13447541 0.3589967 -0.10883915 0.32826796 0.1091656 0.45953286
-0.93058336 1.0855652 0.2626247 -0.050927717 0.01487885 0.0039400756 -0.2656185 1.0046861
0.22137193 -0.2763587 -0.3590625 0.27733094 -0.4680549 0.044554036 -0.09462087 -0.104219295
0.20211504 -0.31140727 0.08508616 -0.17781422 0.16665381 0.17007115 -1.4372354 1.3729641
0.30456483 0.28538445 -0.12128041 0.5733407 0.36162162 0.6625976 0.6911772 -0.47425064
0.700889 -1.4224652 0.02833899 0.5313097 0.6608718 -1.2016374 -0.72009 0.45431182
0.19483414 -0.61864483 0.17575945 -0.2847526 0.18067126 0.19007295 0.1487248 -0.8364244
0.45392632 -0.44200882 0.14474565 0.20143539 0.05177289 -0.21734577 0.35251832 -0.08258574
-0.11029467 -0.15046246 -0.3745674 -0.23401305 -0.0059708846 -0.24790613 -0.40487385 -0.18753661
0.0013707237 0.3288888 -0.29359382 0.80759275 0.29536483 0.037884932 -1.043288 1.2445705
0.8703075 -0.5327367 -0.20522438 0.16115545 -0.14350566 0.3349554 -0.2675245 0.27495036
0.21592082 0.19232373 0.47846782 -0.71465296 -0.17553689 0.4089609 -0.36416796 1.6468973
0.040999483 0.11890981 -0.15715927 1.0414635 -0.11950904 1.0856013 0.29395756 0.04020159
00000000: 066d 43be af70 9dbe c64e 953e 164b 34be
00000010: dff8 3d3e e931 a13d af4a 49bc 3ca4 673e
00000020: 3fa3 e03e 4d40 35be e878 343e 54b4 bfbc
00000030: 3959 fb3e 5e74 4bbe 8c68 9e3e 99be e13e
00000040: 2a48 343e bf77 bebe 6b3d 7bbe e5de 1f3f
00000050: 9dc5 22be 0e14 7cbc 1306 243e 29a9 1a3f
00000060: 99bb a0bd 6d2f c1bd ecb3 093e 6ace b73e
00000070: 0fe7 debd bd12 a83e 3792 df3d e447 eb3e
00000080: b63a 6ebf cdf3 8a3f bf76 863e 9599 50bd
00000090: 6cc6 733c c01b 813b 26ff 87be 8e99 803f
000000a0: 53af 623e e37e 8dbe 0ad7 b7be 52fe 8d3e
000000b0: e4a4 efbe 4b7e 363d 96c8 c1bd ed70 d5bd
000000c0: 3ff7 4e3e c670 9fbe a741 ae3d ee14 36be
000000d0: 4ca7 2a3e 2227 2e3e 54f7 b7bf 4abd af3f
000000e0: ecef 9b3e e91d 923e dd61 f8bd 75c6 123f
000000f0: 7826 b93e ff9f 293f fdf0 303f fbd0 f2be
00000100: 766d 333f 5713 b6bf 2b27 e83c ea03 083f
00000110: e52e 293f 41cf 99bf d157 38bf 8f9b e83e
00000120: 9a82 473e 825f 1ebf 49fa 333e 18cb 91be
00000130: e301 393e 7ca2 423e 504b 183e e91f 56bf
00000140: 0869 e83e fb4e e2be 3438 143e 1445 4e3e
00000150: cf0f 543d e48f 5ebe 487d b43e b622 a9bd
00000160: 2ce2 e1bd d512 1abe 4cc7 bfbe 1ea1 6fbe
00000170: 69a7 c3bb 1bdb 7dbe a04b cfbe 9909 40be
00000180: dba9 b33a 1d64 a83e ee51 96be 66be 4e3f
00000190: 0f3a 973e 3b2d 1b3d 768a 85bf 164e 9f3f
000001a0: 79cc 5e3f 6f61 08bf 5726 52be ef05 253e
000001b0: 26f3 12be 467f ab3e f9f8 88be 4bc6 8c3e
000001c0: 591a 5d3e 83f0 443e bcf9 f43e 7ff3 36bf
000001d0: f1bf 33be 5363 d13e 3974 babe 88cd d23f
000001e0: 13ef 273d fd86 f33d 5cee 20be ad4e 853f
000001f0: 28c1 f4bd fcf4 8a3f 9b81 963e 6caa 243d

key_decoder.lstm.weight_hh_l0 f4 [64, 16]
-0.5395142 0.5041152 -0.026541386 0.23228946 -0.34335944 0.58723897 0.4495823 0.8822694
0.45303044 -0.8664995 0.4153191 0.6327059 0.5121871 0.31633973 -0.24526034 -0.10231642
-0.59673554 -0.03148189 0.013636914 0.14667237 0.13567133 0.29892024 0.15461855 -0.39231026
-0.364585 -0.039449256 -0.21136272 0.21937285 -0.24080709 0.03810328 0.1559646 -0.052005522
0.026697626 0.22615507 0.6307611 0.13858247 0.20611203 0.4974651 -0.13064122 0.7531773
0.3042143 -0.95983756 0.39029026 0.30958256 -0.15000819 0.43507543 0.20552461 -0.02133539
0.09850918 0.37153426 0.53280485 0.14473337 0.32440904 0.20607992 -0.5953707 0.5868273
0.11989716 -0.03893963 0.5127552 0.26762858 0.032739654 0.46091145 0.19533813 0.059554614
-0.48902082 0.31411734 -0.7398849 0.26400676 0.00062122586 0.048473462 -0.25621727 -0.84617466
-0.20960869 0.28366566 -0.3350841 0.15693039 0.54331344 0.0996503 -0.1838912 -0.3437456
0.004978152 -0.012457339 0.09398973 -0.02236482 0.07618737 0.03236574 0.019527791 -0.14319214
-0.21988946 0.16276635 0.041513637 0.014693112 0.0541173 -0.057947006 0.011534743 -0.037869338
0.053989876 -0.19093737 0.04826464 -0.028273514 -0.033784483 -0.025726467 -0.65223694 0.25071773
0.09748298 0.035536133 0.2430161 0.16103548 0.089324206 0.6270659 -0.06960702 0.03927251
-0.1649356 -0.019286064 0.25992534 -0.18451053 0.58299917 0.4014441 -0.49500382 0.5739176
0.060083598 -0.36285752 0.19530417 0.5057369 1.0605674 0.73811114 -0.22461003 -0.28703684
0.10259447 -0.27580613 -0.39004198 0.0041374457 -0.06441696 -0.29525608 0.003529655 0.13875079
0.17677432 0.31677482 0.014147681 -0.24702153 0.86319715 0.081506886 -0.06765549 -0.6164361
-0.12412677 -0.7892526 -0.025913676 -0.10814905 -0.021614017 -0.1986368 -0.15109956 0.27931726
-0.18032408 0.5254105 0.2615253 0.6848781 3.2020342 0.20117584 0.110813305 0.06247244
0.19274557 0.57233506 -0.63077104 -0.3215783 -0.21625622 -0.41333732 -0.18429667 0.6078315
-0.008680939 0.34544182 0.20120443 -0.43934578 -0.4466755 0.31905755 -0.92652255 -0.33195
-0.13942266 0.5558888 -0.47464746 0.17984314 0.13741003 0.28124705 0.26969123 0.40917242
0.44855285 0.49120736 -1.0393258 0.10321706 -0.20594107 -0.23740111 -0.46853748 -0.35593855
0.8759847 -0.07439725 0.5832542 -0.0014254925 -0.39012125 -0.51491374 -0.68449295 0.15524767
0.7865797 0.20040241 0.9720598 0.26323104 -0.14703688 0.2295473 -0.7647682 -0.68343335
-0.20230208 0.3728856 -0.5141009 -0.14327377 0.49381882 0.3423167 -0.4897107 -0.24082273
0.82030505 0.5487492 0.9761728 0.3631273 -0.03605441 0.45757344 -0.48217574 -0.67524254
0.058187563 0.2195365 0.5833588 -0.018704407 0.17528728 0.2822967 -0.10495058 0.05064903
0.18690507 0.09369958 -0.01144707 0.16514683 -0.28620753 0.07695191 -0.16703287 -0.6947387
-0.056004982 -0.10646495 0.8870425 -0.038330242 0.3055989 0.29007176 -0.26117957 0.8783442
-0.2672321 -0.0075245104 0.25961423 0.21039902 0.5287666 -0.0815025 0.37195596 0.10646122
00000000: 9a1d 0abf b20d 013f 526d d9bc 4add 6d3e
00000010: cfcc afbe 4b55 163f a72f e63e 68dc 613f
00000020: 9bf3 e73e e9d2 5dbf b4a4 d43e 04f9 213f
00000030: b21e 033f 48f7 a13e 8725 7bbe 458b d1bd
00000040: a9c3 18bf 27f3 00bd 5d6d 5f3c 4831 163e
00000050: 6ded 0a3e 130c 993e 5354 1e3e e4dc c8be
00000060: e3aa babe 8b95 21bd 786f 58be 47a3 603e
00000070: 2296 76be 2f12 1c3d 2fb5 1f3e be03 55bd
00000080: fbb4 da3c 3295 673e 8f79 213f 90e8 0d3e
00000090: 080f 533e bfb3 fe3e d0c6 05be 3ad0 403f
000000a0: fac1 9b3e eab7 75bf 20d4 c73e 9b81 9e3e
000000b0: bf9b 19be 35c2 de3e 0b75 523e 8ec7 aebc
000000c0: 2ebf c93d bd39 be3e e665 083f fc34 143e
000000d0: f118 a63e 9d06 533e 376a 18bf 503a 163f
000000e0: a48c f53d 297f 1fbd ed43 033f 9d06 893e
000000f0: 041a 063d 96fc eb3e b806 483e 8aef 733d
00000100: f060 fabe fdd3 a03e 1969 3dbf e52b 873e
00000110: c3d9 223a 1c8c 463d e92e 83be e79e 58bf
00000120: a9a3 56be a03c 913e 2590 abbe 5cb2 203e
00000130: 9716 0b3f 7515 cc3d fa4d 3cbe 6cff afbe
00000140: c41f a33b de19 4cbc b07d c03d 6d36 b7bc
00000150: 2008 9c3d f091 043d bff8 9f3c f6a0 12be
00000160: b42a 61be 39ac 263e 340a 2a3d 61bb 703c
00000170: 1aaa 5d3d d759 6dbd 38fc 3c3c e11c 1bbd
00000180: 7d24 5d3d 1685 43be 25b1 453d db9d e7bc
00000190: 9961 0abd 50c0 d2bc 00f9 26bf 135e 803e
000001a0: 28a5 c73d 568e 113d 36d9 783e 7ce6 243e
000001b0: 9cef b63d 6487 203f 208e 8ebd 36dc 203d
000001c0: e1e4 28be cffd 9dbc ef14 853e 54f0 3cbe
000001d0: 6f3f 153f 158a cd3e 2471 fdbe 44ec 123f
000001e0: 381a 763d 76c8 b9be d1fd 473e f977 013f
000001f0: acc0 873f daf4 3c3f 2c00 66be 7ef6 92be
00000200: 0d1d d23d 7636 8dbe 95b3 c7be 6993 873b
00000210: 0aed 83bd ce2b 97be c951 673b b014 0e3e
00000220: 5404 353e 4f30 a23e adcb 673c 36f3 7cbe
00000230: 7dfa 5c3f 15ed a63d f68e 8abd c2ce 1dbf
00000240: 2d36 febd 750c 4abf eb48 d4bc 407d ddbd
00000250: e10f b1bc 7267 4bbe d8b9 1abe ac02 8f3e
00000260: e0a6 38be 4d81 063f a5e6 853e 2c54 2f3f
00000270: 21ee 4c40 0a01 4e3e 16f2 e23d 1ae3 7f3d
00000280: 185f 453e 8d84 123f 367a 21bf e9a5 a4be
00000290: 4572 5dbe f3a0 d3be 44b8 3cbe d89a 1b3f
000002a0: 7f3a 0ebc c0dd b03e 8908 4e3e eef1 e0be
000002b0: a7b2 e4be 835b a33e 9530 6dbf 5af5 a9be
000002c0: d0c4 0ebe ba4e 0e3f fe04 f3be cd28 383e
000002d0: 37b5 0c3e 9dff 8f3e f814 8a3e 0c7f d13e
000002e0: b8a8 e53e 887f fb3e a108 85bf 7763 d33d
000002f0: 37e2 52be 4719 73be 25e4 efbe 943d b6be
00000300: 8940 603f 965d 98bd 2650 153f 97d7 baba
00000310: f9bd c7be 63d1 03bf ee3a 2fbf 3ff9 1e3e
00000320: 4a5d 493f 4a36 4d3e e9d8 783f 38c6 863e
00000330: d690 16be 730e 6b3e d9c7 43bf 7df5 2ebf
00000340: 4728 4fbe ddea be3e 1e9c 03bf 5cb6 12be
00000350: d2d5 fc3e 2244 af3e 5cbb fabe 3c9a 76be
00000360: 83ff 513f d47a 0c3f 76e6 793f d2eb b93e
00000370: caad 13bd 1147 ea3e bddf f6be b2dc 2cbf
00000380: 1556 6e3d 2dce 603e 0157 153f fc39 99bc
00000390: 827e 333e 3189 903e 54f0 d6bd 5b75 4f3d
000003a0: 0b64 3f3e 91e5 bf3d 7e8c 3bbc 401c 293e
000003b0: cb89 92be f798 9d3d aa0a 2bbe 65da 31bf
000003c0: 7b65 65bd 4c0a dabd 3815 633f 2c00 1dbd
000003d0: 7677 9c3e 4984 943e 54b9 85be 2adb 603f
000003e0: a5d2 88be 2b90 f6bb 28ec 843e d772 573e
000003f0: 3f5d 073f c8ea a6bd 0371 be3e 5708 da3d

key_decoder.lstm.bias_ih_l0 f4 [64]
0.23723578 0.3918871 0.21354985 0.5545997 0.23861535 0.21112917 0.26677564 0.34899902
-0.42501628 0.1273639 -0.16445985 0.58453566 -0.0756397 0.5731046 0.26053694 0.32385033
0.019412274 0.17221121 -0.060013335 0.21421492 -0.16407692 -0.07834926 -0.22896951 0.13038018
-0.062815726 0.021572141 0.15227285 -0.16780107 0.5760255 0.41733065 0.59724885 0.36805108
-0.12070876 0.39446467 -0.08487558 -0.37671384 -0.07423786 0.1805917 0.3068269 -0.40216106
0.020914216 0.384292 0.053580463 0.427155 -0.099900685 -0.2881094 -0.51689607 -0.6084666
0.46388993 0.40717816 0.4282414 -0.022543097 0.45151344 -0.001708785 0.4103505 -0.09336445
0.20219713 0.0069723735 -0.12967455 0.8064105 0.29278016 0.41533047 0.48770088 0.4017559
00000000: f0ed 723e 6da5 c83e d0ac 5a3e 3ffa 0d3f
00000010: 9557 743e 3f32 583e d196 883e 00b0 b23e
00000020: bc9b d9be af6b 023e 2a68 28be 21a4 153f
00000030: fde8 9abd fcb6 123f 1965 853e b6cf a53e
00000040: 7d06 9f3c 2358 303e 8bd0 75bd 285b 5b3e
00000050: c803 28be 9475 a0bd fc76 6abe 6282 053e
00000060: 88a5 80bd 0fb8 b03c 6aed 1b3e 0bd4 2bbe
00000070: 6876 133f 5dac d53e 4de5 183f 3171 bc3e
00000080: 2836 f7bd 46f7 c93e 40d3 adbd a3e0 c0be
00000090: 050a 98bd 08ed 383e 6a18 9d3e 0ee8 cdbe
000000a0: 4a54 ab3c ecc1 c43e 3077 5b3d 0fb4 da3e
000000b0: bb98 ccbd 1383 93be 4d53 04bf 78c4 1bbf
000000c0: fb82 ed3e a879 d03e 7542 db3e 4dac b8bc
000000d0: c52c e73e 4ff9 dfba 7619 d23e dc35 bfbd
000000e0: c40c 4f3e 8278 e43b 68c9 04be eb70 4e3f
000000f0: 48e7 953e 32a6 d43e eeb3 f93e f3b2 cd3e

key_decoder.lstm.bias_hh_l0 f4 [64]
0.1219368 0.35816482 0.20727745 0.45035604 0.4806272 0.15628402 0.27188843 0.2919978
-0.37235186 0.105659984 -0.2722698 0.7740938 -0.007166274 0.46859622 0.34234673 0.35498485
-0.15940799 0.3097022 -0.24639983 0.4645493 -0.106179036 -0.034069423 0.03451877 0.34097123
0.09028804 0.060357857 0.17191467 0.02480949 0.4726075 0.2399308 0.5821812 0.32119024
-0.01764799 0.29114062 -0.29325056 -0.14676403 -0.0034481958 0.16744137 0.2987153 -0.21375205
-0.10358713 0.06587492 -0.039996356 0.32757962 0.30173624 -0.53141594 -0.46575963 -0.58484983
0.31827608 0.25341183 0.37111148 0.16636877 0.25464907 -0.12476748 0.18996347 -0.19774152
0.2541427 -0.035426077 -0.18723592 0.5921908 0.309858 0.4205678 0.2567264 0.2829474
00000000: 00ba f93d 6161 b73e 8a40 543e 1195 e63e
00000010: c514 f63e eb08 203e f634 8b3e bc80 953e
00000020: e7a4 bebe 4364 d83d f266 8bbe 032b 463f
00000030: 10d3 eabb d8eb ef3e 1248 af3e 93c0 b53e
00000040: d93b 23be 4991 9e3e 3d50 7cbe 68d9 ed3e
00000050: 6574 d9bd 618c 0bbd 8e63 0d3d c893 ae3e
00000060: f0e8 b83d cd39 773d 660a 303e 463d cb3c
00000070: 9cf9 f13e 6bb0 753e d409 153f 0c73 a43e
00000080: 8492 90bc 6210 953e f024 96be 4f49 16be
00000090: 20fb 61bb c075 2b3e 36f1 983e d1e1 5abe
000000a0: 7d25 d4bd 6ee9 863d 38d3 23bd 84b8 a73e
000000b0: 2c7d 9a3e e00a 08bf 0c78 eebe b8b8 15bf
000000c0: 15f5 a23e 32bf 813e 5302 be3e 935c 2a3e
000000d0: 5d61 823e 1886 ffbd c985 423e c17c 4abe
000000e0: fe1e 823e ef1a 11bd c6ba 3fbe d199 173f
000000f0: b5a5 9e3e aa54 d73e a571 833e 7bde 903e

key_decoder.lstm.weight_ih_l1 f4 [64, 16]
-0.032562315 -0.08823195 -0.063446365 -0.052330326 0.015253639 0.103445925 0.057140242 0.19207485
0.18584141 -0.002491247 0.376601 0.687057 0.18305728 -0.09019514 -0.4437297 -0.13476993
-0.24166383 -0.10801645 -0.35077086 0.008910919 0.023910047 0.11945507 -0.222382 0.46913972
0.047767922 0.61003333 0.05155033 0.7309478 0.36461437 0.32931653 -0.41370043 -0.23675418
-0.5149231 -0.13852625 -0.41932288 0.19861913 -0.1684456 0.14077705 -0.44178426 0.42822972
-0.049869005 0.859308 -0.2643734 0.5746612 0.5342395 0.73651826 -0.11316099 -0.23448606
-0.21228474 -0.023066983 -0.24235539 0.06155472 -0.050395902 0.11027456 -0.4278823 0.17141454
-0.129009 0.62927353 0.036952976 0.5126392 0.54345083 0.44081736 -0.16287144 -0.13961184
0.02434859 -0.020804478 0.0927348 -0.46691433 0.34720975 0.03751706 -0.17439719 -0.7559438
-0.20415564 0.1114642 -0.013916124 0.045861427 0.557754 -0.041283958 0.08325569 -0.6116256
-0.12277142 -0.115310185 -0.029387988 0.09743662 -0.20924456 0.17187305 0.28582793 0.8806265
0.3049113 0.43335804 0.07367721 0.6092624 -0.21452558 -0.08716245 -0.50795937 -0.17075582
-0.52243584 0.015165972 -0.5927573 0.16713949 -0.19599444 0.14303343 -0.5568294 0.2838433
-0.07370017 0.8348292 -0.09294242 0.5545364 0.4694646 0.59795547 -0.026860777 -0.19272843
-0.13342299 -0.04809276 -0.18861438 -0.0048581446 -0.0048543746 0.018245164 -0.30813658 0.048382055
0.051364876 -0.17811978 0.4448381 0.40654567 0.46621948 0.02944485 -0.2024154 -0.42212683
-0.24227068 -0.19001131 -0.29709694 -0.0057849535 0.026087582 0.10966318 -0.2795675 0.187439
-0.11944304 0.4790125 -0.04205328 0.5513335 0.53127044 0.4192304 -0.17009091 -0.34637257
-0.16908088 0.1951643 -0.50655544 -0.07390859 0.10174954 0.14310418 -0.36461526 0.4132578
0.26525766 0.41611922 -0.011390727 0.22841924 -0.57296747 0.55257297 -0.63438547 -0.72664946
-0.12557669 -0.03970408 0.02087537 0.11212428 0.041157115 0.06683844 -0.021572076 0.23439948
-0.03598657 -0.10733946 0.1394564 0.6641147 0.28007874 0.033976357 -0.43736827 -0.10625714
0.08302898 0.6621958 -0.41549814 -0.13959326 -0.1543331 0.0984067 0.39233452 0.17459688
0.14828819 -0.047157258 0.17017032 -0.12501384 -0.8761745 -0.049828507 -0.76443183 -0.16538212
-0.024942799 0.10265981 0.039764915 0.035658974 0.3024474 0.17246811 -0.25967836 0.67963755
0.16035436 0.8192698 -0.10431753 -0.030042216 0.16806228 0.38512966 -0.19892277 -0.2182118
0.25332806 0.05834738 0.13706443 -0.27768254 0.03284466 0.02852567 -0.20869476 -0.20160164
0.49963275 -0.52968717 0.7562503 -0.22117457 -0.23275745 -0.0092885 -0.08449501 -0.1910136
-0.23276651 -0.23550346 -0.22916579 -0.13995683 -0.16024676 0.056892525 0.0078672115 0.091027066
-0.25908685 0.08964829 0.00958358 0.5813756 0.5554119 0.058419276 -0.30317745 -0.2852088
0.006656815 -0.012975144 -0.17946355 0.14728768 -0.096165515 0.024651641 0.030872837 0.40365005
0.0774962 0.006389782 0.59486836 0.90094477 0.21655186 -0.17032765 -0.53059334 0.12648217
00000000: 1060 05bd f4b2 b4bd 2bf0 81bd 5358 56bd
00000010: 66ea 793c 75db d33d e30b 6a3d 45af 443e
00000020: 364d 3e3e 3044 23bb d9d1 c03e f8e2 2f3f
00000030: 5e73 3b3e 3bb8 b8bd 8a30 e3be 2101 0abe
00000040: b976 77be bb37 ddbd 3d98 b3be 1aff 113c
00000050: 01df c33c dca4 f43d 1bb8 63be 1533 f03e
00000060: 4ca8 433d 252b 1c3f 7026 533d 651f 3b3f
00000070: bcae ba3e 2d9c a83e 8bd0 d3be b06f 72be
00000080: 00d2 03bf d3d9 0dbe 7db1 d6be d062 4b3e
00000090: 017d 2cbe dc27 103e 8c31 e2be ed40 db3e
000000a0: 7143 4cbd 9cfb 5b3f f35b 87be ff1c 133f
000000b0: ebc3 083f 768c 3c3f f3c0 e7bd 1d1d 70be
000000c0: 2c61 59be f8f6 bcbc 032c 78be cd20 7c3d
000000d0: ef6b 4ebd a1d7 e13d 6413 dbbe 4b87 2f3e
000000e0: ef1a 04be 1218 213f 015c 173d 533c 033f
000000f0: 981f 0b3f d0b2 e13e c5c7 26be 68f6 0ebe
00000100: b276 c73c 276e aabc beeb bd3d 650f efbe
00000110: 7ac5 b13e 7dab 193d 2d95 32be 8885 41bf
00000120: 2d0e 51be 5847 e43d 7400 64bc 31d9 3b3d
00000130: f7c8 0e3f 5e19 29bd f681 aa3d 7f93 1cbf
00000140: 956f fbbd bf27 ecbd 14bf f0bc da8c c73d
00000150: 3544 56be 7dff 2f3e 0a58 923e bd70 613f
00000160: 551d 9c3e 1be1 dd3e 14e4 963d 9ff8 1b3f
00000170: 98ac 5bbe 3a82 b2bd a009 02bf 9dda 2ebe
00000180: 5bbe 05bf b27a 783c f1be 17bf 9d26 2b3e
00000190: c4b2 48be 5b77 123e 5f8c 0ebf e953 913e
000001a0: 1df0 96bd 5eb7 553f 9858 bebd 19f6 0d3f
000001b0: aa5d f03e 9c13 193f 220b dcbc 9a5a 45be
000001c0: 09a0 08be eafc 44bd 2124 41be 1231 9fbb
000001d0: 7211 9fbb e276 953c 14c4 9dbe 432c 463d
000001e0: fa63 523d 0865 36be d2c1 e33e c126 d03e
000001f0: 52b4 ee3e 5336 f13c fc45 4fbe 0221 d8be
00000200: ce15 78be 5392 42be 171d 98be b58f bdbb
00000210: a0b5 d53c 1797 e03d 7923 8fbe 02f0 3f3e
00000220: 8d9e f4bd 2041 f53e 0f40 2cbd 3124 0d3f
00000230: 5701 083f 5ea5 d63e 502c 2ebe bf57 b1be
00000240: 8a23 2dbe 26d9 473e 9ead 01bf 635d 97bd
00000250: 1062 d03d e789 123e daae babe 8796 d33e
00000260: dacf 873e 940d d53e 2ca0 3abc bce6 693e
00000270: ffad 12bf 6c75 0d3f 1667 22bf b305 3abf
00000280: 2d97 00be bfa0 22bd d302 ab3c 6aa1 e53d
00000290: 5d94 283d 98e2 883d ecb7 b0bc 6b06 703e
000002a0: a766 13bd cad4 dbbd a9cd 0e3e 6c03 2a3f
000002b0: 7b66 8f3e cb2a 0b3d bcee dfbe 589d d9bd
000002c0: 190b aa3d aa85 293f 2cbc d4be 89f1 0ebe
000002d0: 7f09 1ebe 7489 c93d 12e0 c83e 86c9 323e
000002e0: dcd8 173e f827 41bd 2141 2e3e a103 00be
000002f0: f94c 60bf fa18 4cbd ceb1 43bf ee59 29be
00000300: d754 ccbc 4e3f d23d 89e0 223d 250f 123d
00000310: 63da 9a3e 7b9b 303e 90f4 84be bafc 2d3f
00000320: ef33 243e aabb 513f 6ea4 d5bd 181b f6bc
00000330: 8518 2c3e b72f c53e 69b2 4bbe ea72 5fbe
00000340: 37b4 813e aafd 6e3d 9e5a 0c3e 682c 8ebe
00000350: 1f88 063d aaae e93c 14b4 55be a970 4ebe
00000360: ddcf ff3e 9499 07bf 9f99 413f 967b 62be
00000370: f857 6ebe cb2e 18bc b80b adbd 1299 43be
00000380: 585a 6ebe d227 71be 70aa 6abe d850 0fbe
00000390: ba17 24be 2308 693d 7ae5 003c 666c ba3d
000003a0: 08a7 84be 8699 b73d 7304 1d3c 08d5 143f
000003b0: 792f 0e3f 0d49 6f3d 133a 9bbe e306 92be
000003c0: 6921 da3b b395 54bc 4bc5 37be 95d2 163e
000003d0: 6df2 c4bd 3df2 c93c 08e9 fc3c 38ab ce3e
000003e0: 54b6 9e3d 6061 d13b 4b49 183f 51a4 663f
000003f0: c5bf 5d3e 5f6a 2ebe f7d4 07bf 8b84 013e
