Model/[POS]NOSU_1.0.pth (torch, 114240 bytes, 18 tensors)

pos_encoder.lstm.weight_ih_l0 f4 [128, 13]
0	0x3d09756a	0.03355924
1	0x3de49ec3	0.11163094
2	0x3d26ad27	0.040692475
3	0xbdc75e53	-0.09734788
4	0xbc9c5475	-0.019083241
5	0xbc5df066	-0.013546085
6	0xbd277b5a	-0.04088912
7	0x3d1a42e2	0.03766144
8	0xbe9d080d	-0.30670205
9	0xbd934d38	-0.07192463
10	0x3dac360d	0.08408747
11	0x3e245f43	0.16051964
12	0xbf0fcef1	-0.5617514
13	0xb6aaf9e3	-5.0954854e-06
14	0xb59df4db	-1.1768674e-06
15	0x34b8fd67	3.4457045e-07
16	0xb421c753	-1.5066807e-07
17	0xb7041ec4	-7.874976e-06
18	0x340d8a19	1.3181888e-07
19	0xb396fdfa	-7.0311174e-08
20	0xb683a5ff	-3.9234287e-06
21	0xb64302bc	-2.9058856e-06
22	0xb44acbe8	-1.8886897e-07
23	0xb1ac335e	-5.0116986e-09
24	0xb5b119f2	-1.3195079e-06
25	0x3639e1d2	2.7698593e-06
26	0x3a196be5	0.00058525644
27	0x3a151212	0.00056865916
28	0x39d217a4	0.00040071935
29	0xb89d4962	-7.500012e-05
30	0x3a36f88c	0.00069797854
31	0x36c55b38	5.8816768e-06
32	0xb8013fea	-3.081552e-05
33	0x39c01996	0.00036640157
34	0x3a001424	0.00048858137
35	0xb6f6614a	-7.3426972e-06
36	0xb81d302f	-3.747659e-05
37	0x390a4a7e	0.00013188456
38	0x3934989e	0.00017222992
39	0xbce01528	-0.027353838
40	0x3cd10bd1	0.02551833
41	0xbd5accf7	-0.053418126
42	0x3d6c0e6a	0.057630934
43	0x3db165fa	0.086620286
44	0x3cae0b81	0.02124572
45	0x3e3c2201	0.18372346
46	0xbdc67266	-0.096897885
47	0xbcd3afb0	-0.02584061
48	0xbbf92ce4	-0.0076042283
49	0xbd1ec86b	-0.038765352
50	0xbe0b3aba	-0.13596621
51	0xbcf777ee	-0.030208554
52	0x3e4d84a2	0.20070127
53	0x3e5bee4f	0.21477626
54	0x3efd4211	0.49464467
55	0x3e143992	0.14475086
56	0xbe2a3d08	-0.16624844
57	0x3c016687	0.00789798
58	0x3d2526ae	0.04032009
59	0x3e87857f	0.26469037
60	0xbee89c90	-0.45431948
61	0xbe0786f1	-0.1323507
62	0xbe017c19	-0.12644996
63	0x3cb1a128	0.02168329
64	0x3d109def	0.035306867
65	0xbd0cef77	-0.03440806
66	0x3ea98904	0.33112347
67	0xbd2b61fe	-0.0418415
68	0x3e0c0b5e	0.13676211
69	0xbe54a18b	-0.20764749
70	0xbbe91dd1	-0.00711415
71	0x3c9d6522	0.019213263
72	0xbcd04913	-0.02542547
73	0xbe1c7395	-0.15278466
74	0x3c90aa1c	0.01765924
75	0xbbaded93	-0.005307862
76	0x3dd48a46	0.10377936
77	0xbf133939	-0.5750919
78	0x3e01ea83	0.12687115
79	0x3da431f1	0.08017338
80	0x3e29f87e	0.16598698
81	0xbca33bde	-0.019926008
82	0x3d3afd41	0.045651678
83	0xbb908b6f	-0.004411153
84	0x3bd8eea5	0.0066202455
85	0xbc629af9	-0.013830894
86	0x3d33db0b	0.043910068
87	0x38823120	6.208033e-05
88	0x3c6f63fe	0.014611242
89	0x3ceb1b67	0.02869959
90	0xbd84577a	-0.06461997
91	0xb7148f94	-8.854917e-06
92	0x37070695	8.0481595e-06
93	0x371dcd7d	9.405773e-06
94	0xb695c095	-4.4629655e-06
95	0xb4e90110	-4.3400405e-07
96	0xb0d3b4b1	-1.5403626e-09
97	0x3488af17	2.545937e-07
98	0xb53802c4	-6.8549366e-07
99	0x357e131b	9.4650176e-07
100	0x330ca5ab	3.2746964e-08
101	0xb50bd910	-5.20974e-07
102	0xb6c92b36	-5.995297e-06
103	0x36e7680e	6.89645e-06
104	0x3cebca9a	0.028783131
105	0x3d8d2b5e	0.06893037
106	0x3e991b20	0.29903507
107	0x3c860063	0.016357606
108	0x3ca4bb21	0.020108761
109	0xbc277f8a	-0.010223279
110	0x3d33fcec	0.043942377
111	0xbda97fff	-0.082763664
112	0xbd7b16d0	-0.061301053
113	0x3d0438a9	0.032280598
114	0x3dfd951e	0.123819575
115	0x3c402d85	0.011729603
116	0xbb791f50	-0.0038013048
117	0x3d6f0080	0.058350086
118	0x3bb2ee36	0.005460526
119	0x3e0741b5	0.13208659
120	0x3b185e2e	0.0023249495
121	0xbc730558	-0.014832817
122	0xba1c88cc	-0.0005971312
123	0xba4f6772	-0.0007911838
124	0x3bde11e5	0.0067770355
125	0x3d54d254	0.051958397
126	0xbbb0a410	-0.0053906515
127	0x3cb47b87	0.022031559
128	0xba8bf348	-0.0010677362
129	0xbc82c33f	-0.015962241
130	0x3d0d956a	0.03456632
131	0xbda70152	-0.08154549
132	0xbe4a610a	-0.1976358
133	0x3e075a73	0.13218097
134	0x3e0681a6	0.13135394
135	0x3d54d7da	0.051963665
136	0x3de56ed8	0.112027824
137	0x3e8daf9e	0.27673048
138	0x3f15bda9	0.58492523
139	0xbd5ad27f	-0.0534234
140	0x3e0d6384	0.13807493
141	0x3ceebba6	0.029142212
142	0x3e0aaf1f	0.13543366
143	0x3ad20652	0.0016023612
144	0xbd905530	-0.07047498
145	0x3e339934	0.17538911
146	0x3debbeab	0.115109764
147	0xbe80a00e	-0.25122112
148	0xbc8f1d7b	-0.017470112
149	0xbefca0e1	-0.4934149
150	0xbd03ff5f	-0.032225963
151	0xbf480097	-0.781259
152	0xbc170920	-0.009218484
153	0x3e2a89fb	0.16654198
154	0xbdae3192	-0.085055485
155	0x3dde8991	0.108660825
156	0xbd74e1cd	-0.059785653
157	0xbd990c2e	-0.07473026
158	0xbe9d2b3d	-0.3069705
159	0x3ccc2da6	0.02492411
160	0xbe43168f	-0.19051574
161	0xbc693457	-0.01423367
162	0x3ec372d1	0.38173535
163	0xbcaaefd1	-0.020866306
164	0xbe86de80	-0.2634163
165	0xbdc3bdbd	-0.09557674
166	0x3c165cd0	0.009177402
167	0x3d3db1c7	0.04631212
168	0x3d64abe0	0.055827975
169	0x3d9792c4	0.0740104
170	0x3da5aff8	0.08090204
171	0x3d1ac9ef	0.037790235
172	0xbdca90fc	-0.09890935
173	0xbe440da7	-0.19145833
174	0x3c124d98	0.008929633
175	0x3eac348d	0.33633843
176	0x3de8b277	0.113621645
177	0xbe1ed981	-0.15512659
178	0xbcfce2bf	-0.03086984
179	0xbc772ea9	-0.015086808
180	0xbe89d958	-0.26923633
181	0xbd88bfeb	-0.066772304
182	0xbe9ebef7	-0.3100507
183	0x3e2dd619	0.16976203
184	0x3d57654d	0.052586842
185	0x3cca8365	0.024720857
186	0xbd841147	-0.06448608
187	0xbb678d09	-0.0035331866
188	0x3baf42d5	0.005348543
189	0x3d168708	0.03674987
190	0x3c1b7d2c	0.0094902925
191	0x3cc0d6f7	0.023540003
192	0xbd9896c6	-0.07450633
193	0xbe6ea465	-0.23304899
194	0x3e2b638a	0.1673719
195	0x3e906356	0.28200787
196	0x3e53187b	0.20614807
197	0x3f16d80c	0.5892341
198	0xbd5c17e6	-0.05373373
199	0x3d718d26	0.0589725
200	0xbb795f7b	-0.0038051296
201	0x3d8d147a	0.06888671
202	0xbf0c7b2e	-0.5487546
203	0x3ec434aa	0.3832143
204	0x3d4aae32	0.04948253
205	0x3c3cc65f	0.011521905
206	0x3bc1cfe3	0.0059146746
207	0xbde54209	-0.11194236
208	0xbe46ac8b	-0.19401757
209	0xbdb25a70	-0.08708656
210	0x3db5ef5b	0.08883544
211	0xbc5925ad	-0.0132536115
212	0xbe92ecd4	-0.2869631
213	0x3b6d4e01	0.0036209824
214	0xbeaf6bd6	-0.3426196
215	0xbd30390a	-0.043023147
216	0xbf433da5	-0.7626594
217	0x3d0246bf	0.03180575
218	0xbd7c7c3f	-0.061641928
219	0x3d7f168d	0.062277365
220	0x3dfe7049	0.124237604
221	0x3b44cbaf	0.0030028631
222	0x3b4dbd8d	0.0031393499
223	0x3b69b6fa	0.003566204
224	0x3ab958d8	0.0014140857
225	0x3b0bd61c	0.0021337336
226	0x384977be	4.8033653e-05
227	0xb967f30b	-0.00022120417
228	0x3b457621	0.0030130225
229	0x3b1dd48a	0.0024082982
230	0x39cc286b	0.00038940026
231	0xba012090	-0.00049258117
232	0x399f7756	0.00030415755
233	0x3958d531	0.00020678785
234	0xb689232f	-4.087014e-06
235	0x34b8d169	3.4425037e-07
236	0xb62a03ce	-2.5334189e-06
237	0x3610facf	2.1603662e-06
238	0xb6e0e81c	-6.7027413e-06
239	0xb448401e	-1.8649777e-07
240	0xb42a5e84	-1.5866868e-07
241	0xb5e8a961	-1.7334643e-06
242	0xb6b5591d	-5.4045945e-06
243	0x33c755b4	9.282249e-08
244	0x34d1d5d6	3.908487e-07
245	0x355cbdac	8.2232395e-07
246	0x361b24ae	2.311815e-06
247	0x3de3fda3	0.11132362
248	0x3b1b854e	0.0023730579
249	0x3e851da0	0.25999165
250	0x3d82df14	0.06390205
251	0xbe4aecf1	-0.19816948
252	0xbc754ee1	-0.0149724195
253	0xbce14090	-0.027496606
254	0x3dd0334c	0.10166034
255	0xbe6af37d	-0.22944446

pos_encoder.lstm.weight_hh_l0 f4 [128, 32]
0	0xbede25b0	-0.43388128
1	0x3a410bb7	0.00073641114
2	0x3b26b075	0.0025434766
3	0x39b8e00b	0.0003526214
4	0xbf4108e7	-0.7540421
5	0xbdceb904	-0.10093883
6	0xbc59adfb	-0.013286109
7	0x3a47dbd0	0.0007624002
8	0x3ebe568b	0.37175402
9	0xbc732868	-0.014841177
10	0xbde456f0	-0.111493945
11	0x3dd5105d	0.10403512
12	0x3b3f39dc	0.0029178774
13	0x3e0855fd	0.13314052
14	0x3c71e532	0.014764117
15	0x3eb4335f	0.35195443
16	0xbcbde3fe	-0.023180004
17	0xbc1b0930	-0.00946264
18	0x3934645c	0.00017203524
19	0xbd490a1e	-0.049081914
20	0x3d34798f	0.04406124
21	0xbd1fd946	-0.039025567
22	0x3f97905c	1.184093
23	0x3d291769	0.04128209
24	0x3da87670	0.08225715
25	0xbe1b0230	-0.15137553
26	0xbdd96a42	-0.1061597
27	0xbc31c2e5	-0.010849689
28	0x3a59aff6	0.0008304113
29	0x3a02c299	0.0004988104
30	0xbf245317	-0.64189285
31	0xbe8141a2	-0.25245386
32	0xb38f61ac	-6.676723e-08
33	0x2fb98023	3.374235e-10
34	0xb206adc7	-7.839339e-09
35	0x34b4f85d	3.370832e-07
36	0xb60da8ac	-2.1108817e-06
37	0x3449291a	1.8734536e-07
38	0xb4c2af0c	-3.626268e-07
39	0x30d97b82	1.5823931e-09
40	0xb565bcfc	-8.5584156e-07
41	0xb50b720b	-5.194749e-07
42	0xb517e6de	-5.658784e-07
43	0xb481bba8	-2.416466e-07
44	0x343d215e	1.7614136e-07
45	0x35ba480e	1.3879051e-06
46	0xb4724028	-2.2561346e-07
47	0xb596ae93	-1.1226679e-06
48	0x34d90ec6	4.043015e-07
49	0x33528c3b	4.9021974e-08
50	0xb0b9dff2	-1.3524171e-09
51	0x36039cb1	1.9611728e-06
52	0x312a0439	2.4740656e-09
53	0x3511b1cc	5.427544e-07
54	0x35c737c1	1.4842882e-06
55	0x34b7083d	3.40924e-07
56	0x3520b077	5.9861435e-07
57	0x3589b462	1.0259794e-06
58	0x345ad5cc	2.0380611e-07
59	0x33b58443	8.4525276e-08
60	0x3082bedc	9.51299e-10
61	0x300e6449	5.1801813e-10
62	0xb612e730	-2.1890264e-06
63	0x35826315	9.714591e-07
64	0x3848e316	4.7895206e-05
65	0x34b83a8a	3.4315264e-07
66	0xb6195fbe	-2.2854506e-06
67	0xb81294ac	-3.4947574e-05
68	0xb803fde0	-3.1469273e-05
69	0x38ada0a7	8.279207e-05
70	0xb885bcd1	-6.377104e-05
71	0x33bd3123	8.809936e-08
72	0x3919ad2a	0.00014655726
73	0x37fd2a9b	3.017979e-05
74	0x399948f1	0.0002923678
75	0x380e4616	3.392071e-05
76	0x372a37be	1.0145768e-05
77	0x384317d9	4.6513833e-05
78	0xb884ce3d	-6.332665e-05
79	0xb9cb4a2a	-0.00038774434
80	0x37cd641d	2.4484523e-05
81	0x36690d75	3.4727539e-06
82	0xb2df390c	-2.5986559e-08
83	0xb94ecc6f	-0.00019721848
84	0x387b68e7	5.994076e-05
85	0xb7ff7d1c	-3.0456627e-05
86	0x37fa42ed	2.9833487e-05
87	0x36b0151a	5.2476653e-06
88	0x381126e3	3.460691e-05
89	0x375cdb09	1.316402e-05
90	0x38439f6a	4.664009e-05
91	0xb626856e	-2.4813594e-06
92	0x33931ce9	6.85048e-08
93	0x34cbd058	3.7963287e-07
94	0x386e78ab	5.6856003e-05
95	0xb9cde1fd	-0.0003926902
96	0x3b4f20e2	0.0031605293
97	0x39174d7c	0.00014429347
98	0x39bf428d	0.00036479943
99	0x3ca92e29	0.020651894
100	0x3e71e073	0.23620777
101	0x3a44190d	0.00074805395
102	0x3cf81d7c	0.030287497
103	0x38530657	5.0312225e-05
104	0x3cefc6f2	0.02926967
105	0x3bfffa68	0.007811833
106	0x3bdfaf05	0.006826284
107	0xbb0b8adb	-0.002129248
108	0x3b874967	0.0041286233
109	0xbbea4b13	-0.007150063
110	0x3d0a949b	0.033833127
111	0x3e768b36	0.24076542
112	0x3d70e0da	0.058808185
113	0xbb32e0ac	-0.002729456
114	0x3910dc75	0.00013815037
115	0xbd988d5c	-0.07448837
116	0x3c1ea55e	0.009682981
117	0x3d28bc4b	0.041195195
118	0xbda4e7fd	-0.08052061
119	0x3c03d620	0.008046657
120	0x3d1045ef	0.035222944
121	0x3cf03ed1	0.029326828
122	0x3cdcca58	0.026951954
123	0xbbd9debd	-0.006648867
124	0x38527bc4	5.0183167e-05
125	0x390bffcb	0.00013351363
126	0x3d3bc293	0.045839857
127	0xbe288bb8	-0.16459548
128	0xbe911bf8	-0.2834165
129	0x39e24c1a	0.0004316278
130	0xb926467d	-0.00015857253
131	0x3d00f39e	0.03148233
132	0x3e9c0cd7	0.30478546
133	0xbbe812c9	-0.0070823175
134	0xbc93526f	-0.017983643
135	0x3828cc34	4.02445e-05
136	0x3d3e07ba	0.046394087
137	0xbd2ce844	-0.042213693
138	0xbedd2a67	-0.43196413
139	0xbe082b68	-0.13297808
140	0x3adaad00	0.0016683638
141	0x3dd193a3	0.102332376
142	0xbc909b19	-0.017652081
143	0x3ecf3746	0.40471858
144	0x3d3f3f6e	0.04669135
145	0x3b0f8469	0.002189899
146	0x398cd074	0.0002685819
147	0xbdb05793	-0.086104535
148	0x3d094bcf	0.033519562
149	0x3e308bd6	0.17240843
150	0xbddaba71	-0.10680092
151	0x3dc4f0be	0.096162304
152	0xbe8241a3	-0.25440702
153	0x3ce864bc	0.028368346
154	0x3dd0654e	0.10175572
155	0x3c28f92c	0.010313313
156	0x390d890a	0.00013497859
157	0x39f8a396	0.00047424127
158	0x3c6f5314	0.01460721
159	0xbe49420f	-0.19654106
160	0x3e258f32	0.16167906
161	0xb69e10c7	-4.71072e-06
162	0xba3be18e	-0.0007167094
163	0x3d502777	0.050818887
164	0xbd008fa7	-0.031386998
165	0xbe95fdfb	-0.29295334
166	0x3ccfd87f	0.025371788
167	0x3a417e8a	0.00073812215
168	0xbe406e5f	-0.18792103
169	0xbc79d015	-0.0152473645
170	0x3ddd9b17	0.10820597
171	0x3e177dd3	0.14794092
172	0x3c030aaf	0.007998153
173	0xbe0efcd9	-0.13963641
174	0x3d6e443e	0.05817055
175	0x3d8a9319	0.06766338
176	0x3cc90902	0.024540428
177	0xbbbe1010	-0.0058002546
178	0xb93af64d	-0.00017830096
179	0x3d89ed62	0.0673473
180	0x3d0481a9	0.032350216
181	0xbe0d2e42	-0.13787177
182	0xbc2e4a4b	-0.01063783
183	0x3b24d96d	0.002515401
184	0x3b32e150	0.0027294941
185	0x3c17b90a	0.009260425
186	0x38034ff5	3.13073e-05
187	0xbc6fe924	-0.014642987
188	0x39e0dd87	0.0004288966
189	0x3904818b	0.0001263676
190	0x3dc48ff3	0.09597769
191	0xbdd81eec	-0.10552773
192	0x3c8a2e0b	0.016867658
193	0x341dfd80	1.4713987e-07
194	0xb9ddc36e	-0.0004229801
195	0xbca6e5cb	-0.020373246
196	0x3d8cf601	0.06882859
197	0x3a733c31	0.00092786836
198	0x3c09edea	0.00841854
199	0x385f8e66	5.3299962e-05
200	0x3c35c3d5	0.011094053
201	0xbb86f5c7	-0.0041186544
202	0x3d8b542e	0.068031654
203	0x3b255502	0.002522767
204	0x3ad76266	0.0016432523
205	0xb9dff819	-0.00042718722
206	0xbb5ecee6	-0.0033997833
207	0xbd0d1792	-0.034446307
208	0xbc2848d0	-0.010271266
209	0x3a1c5d82	0.00059648615
210	0xb8181121	-3.6255577e-05
211	0xbc798098	-0.015228413
212	0x3b929132	0.004472875
213	0xbc37fd09	-0.011229762
214	0x3ccad698	0.02476053
215	0xbadc1522	-0.0016790966
216	0xbb316fe0	-0.002707474
217	0xbcf055c5	-0.029337773
218	0xbcc6b276	-0.024255019
219	0xba1969b2	-0.00058522366
220	0x379ea9dd	1.8914167e-05
221	0x36ffbf6d	7.621877e-06
222	0xbb3b4c30	-0.0028579347
223	0xbd6adc4a	-0.05733899
224	0xb4e95446	-4.346095e-07
225	0x31d8ff36	6.3154415e-09
226	0xb361f0dd	-5.260596e-08
227	0xb3dcc3f3	-1.0280191e-07
228	0x36ae7770	5.1995085e-06
229	0x35009cc9	4.791187e-07
230	0xb22dac88	-1.0109154e-08
231	0x322b1031	9.9571915e-09
232	0x36740fe0	3.6368074e-06
233	0x34c057c6	3.582665e-07
234	0xb60ad02e	-2.068478e-06
235	0xb50fa0ef	-5.350584e-07
236	0x3421414b	1.5018047e-07
237	0xb4cb3481	-3.7849898e-07
238	0xb4b9eca4	-3.4631114e-07
239	0x3545396c	7.347178e-07
240	0x3497541b	2.8187137e-07
241	0x33b37365	8.356327e-08
242	0x30ce73bb	1.5021365e-09
243	0x34ebe999	4.3942126e-07
244	0x358cad26	1.0481206e-06
245	0xb6223e57	-2.4176168e-06
246	0x35c14b2c	1.4401498e-06
247	0x356a7640	8.734387e-07
248	0xb60befb4	-2.085214e-06
249	0x354aaa03	7.5498264e-07
250	0x35f92722	1.8563335e-06
251	0x33663b86	5.3605184e-08
252	0x31e7dc39	6.7480213e-09
253	0x31cf79c2	6.038335e-09
254	0xb4a24613	-3.0225837e-07
255	0xb61c4d9d	-2.3290988e-06

pos_encoder.lstm.bias_ih_l0 f4 [128]
0	0xbe19ec09	-0.15031447
1	0xb6fde732	-7.5669022e-06
2	0x3a83ebba	0.0010064759
3	0x3e610cfd	0.21977611
4	0x3ed3097d	0.41218176
5	0xbe7571a8	-0.23969138
6	0x3e28b451	0.16475035
7	0x36a95b49	5.0472195e-06
8	0x3e8bcf2d	0.273065
9	0x3dd59755	0.10429255
10	0x3d92d2dc	0.071691245
11	0xbf0ef8b2	-0.5584823
12	0xbe993a93	-0.299275
13	0xbd4f5a29	-0.050623093
14	0xbdac5caa	-0.08416112
15	0x3f1865dd	0.5953043
16	0xbf24c17e	-0.64357746
17	0x3bbe082a	0.005799313
18	0xb6f75827	-7.371436e-06
19	0xbdd93b68	-0.10607034
20	0x3d7fa8dc	0.062416896
21	0xbba06760	-0.0048951358
22	0x3e5f167a	0.21785918
23	0x3e156664	0.1458984
24	0xbcee5110	-0.029091388
25	0xbe57006c	-0.20996255
26	0xbe20e825	-0.15713556
27	0x3c4c8427	0.012482679
28	0xb6f93dc4	-7.4279687e-06
29	0xb75f775d	-1.3319627e-05
30	0x3e2c207e	0.1680927
31	0xbe1d149b	-0.15339892
32	0xbdd7abff	-0.105308525
33	0xb6622e25	-3.3703484e-06
34	0x3a3f1be5	0.00072902284
35	0x3e7507df	0.23928784
36	0x3eb0d808	0.3453982
37	0x3dba373e	0.09092568
38	0x3df57470	0.11985099
39	0xb72aa026	-1.0170077e-05
40	0xbda6156d	-0.081095554
41	0x3debafd6	0.115081474
42	0x3ec74fa7	0.38927957
43	0x3eef58d8	0.4674747
44	0x3e503ce4	0.20335728
45	0x3e80731a	0.25087816
46	0x3de3e9c7	0.11128574
47	0x3e1e467f	0.1545658
48	0x3ef77461	0.48330978
49	0x3b95598b	0.0045577935
50	0xb70967bf	-8.189992e-06
51	0x3e504737	0.20339666
52	0x3d840071	0.06445397
53	0xbd9e126a	-0.07718356
54	0x3f38aaff	0.7213592
55	0x3e00c37c	0.12574571
56	0xbcd1eb30	-0.025624841
57	0x3eb0f56f	0.3456225
58	0x3edaecbf	0.42758748
59	0x3c4f0dd2	0.012637572
60	0xb72a6fee	-1.015885e-05
61	0xb6c140a7	-5.7593747e-06
62	0x3f21f98c	0.63271403
63	0xbd353acb	-0.044245522
64	0x3da7a8bf	0.08186483
65	0x3a7f4457	0.00097376615
66	0x3ba8d6bd	0.005152552
67	0xbdc457dd	-0.09587071
68	0x3d054660	0.032537818
69	0x3d59d143	0.053178083
70	0x3c929efd	0.017898077
71	0xba8a4a46	-0.00105507
72	0x3e2061f2	0.15662363
73	0xbc1816f8	-0.00928282
74	0x3de8e246	0.11371283
75	0x3c9d5e17	0.019209905
76	0xbd174c9e	-0.036938302
77	0x3ded90f1	0.11599911
78	0x3e15bfaf	0.14623903
79	0xbbd5d135	-0.0065251836
80	0x3df0a2f1	0.117498286
81	0x3beeafbc	0.0072841328
82	0x3bb62ea9	0.0055597615
83	0xbe2a9bc8	-0.16660988
84	0x3ce84d2b	0.028357109
85	0xbe30e427	-0.17274533
86	0xbd6231c7	-0.055223253
87	0x3c58d8af	0.013235255
88	0x3d98b01c	0.07455465
89	0x3d86a85b	0.0657508
90	0x3d086ffa	0.033309914
91	0xb85120e7	-4.9860126e-05
92	0x3a6361be	0.00086739275
93	0x3b7fdec1	0.0039042684
94	0x3e202d7a	0.15642348
95	0xbe91e917	-0.28498146
96	0x3ee77c57	0.4521205
97	0xb6adb9fc	-5.177453e-06
98	0x3a2a15ba	0.0006488223
99	0x3e92dcf0	0.28684187
100	0x3f663ec2	0.8993951
101	0x3e0cd4b7	0.1375302
102	0x3cf6fcd9	0.030149864
103	0x36c58ea6	5.887664e-06
104	0x3e29c916	0.16580614
105	0x3c63eb55	0.013911088
106	0x3f0aa27a	0.5415417
107	0x3e435c6a	0.19078222
108	0x3dbd32f3	0.092382334
109	0x3e8c4490	0.2739606
110	0xbd2f0327	-0.042727616
111	0x3ee29f55	0.44262186
112	0x3d8708f0	0.065935016
113	0x3b2a5cb2	0.0025995192
114	0xb5d949d3	-1.6189246e-06
115	0x3ecb2260	0.39674664
116	0x3cb9e44d	0.02269187
117	0x3e4858b6	0.1956509
118	0x3eaea664	0.3411132
119	0x3d964f78	0.07339376
120	0x3e38d918	0.18051565
121	0x3d5b8fd3	0.05360396
122	0x3e331f9e	0.1749253
123	0x3c01dee6	0.007926678
124	0xb6ccba86	-6.101388e-06
125	0xb7302852	-1.0499805e-05
126	0x3e93e6c8	0.2888701
127	0x3ef42670	0.47685575

pos_encoder.lstm.bias_hh_l0 f4 [128]
0	0xbe0e872b	-0.1391875
1	0xb6fde732	-7.5669022e-06
2	0x3a83ebba	0.0010064759
3	0x3e6101a0	0.21973276
4	0x3ed2878e	0.41119045
5	0xbe76847a	-0.24073973
6	0x3e28b451	0.16475035
7	0x36a95b49	5.0472195e-06
8	0x3e8bdbfc	0.27316272
9	0x3dd59755	0.10429255
10	0x3d92b1e5	0.07162837
11	0xbf0e2c4d	-0.5553635
12	0xbe994c25	-0.29940906
13	0xbd59dc05	-0.053188343
14	0xbdaa4d97	-0.0831558
15	0x3f183676	0.594581
16	0xbf10be62	-0.565405
17	0x3bbe082a	0.005799313
18	0xb6f75827	-7.371436e-06
19	0xbdcc57d8	-0.09977692
20	0x3d7fa8dc	0.062416896
21	0xbc4975e0	-0.01229617
22	0x3e61bc4c	0.22044486
23	0x3e156664	0.1458984
24	0xbcee548a	-0.029093046
25	0xbe8bd814	-0.27313292
26	0xbd1389b1	-0.036019985
27	0x3c4c8427	0.012482679
28	0xb6f93dc4	-7.4279687e-06
29	0xb75f775d	-1.3319627e-05
30	0x3e2852e2	0.16437867
31	0xbe24fe62	-0.16112664
32	0xbddfeaf3	-0.10933485
33	0xb6622e25	-3.3703484e-06
34	0x3a3f1be5	0.00072902284
35	0x3e750591	0.23927905
36	0x3eb6e9c2	0.35725218
37	0x3dcb7626	0.099346444
38	0x3df57470	0.11985099
39	0xb72aa026	-1.0170077e-05
40	0xbda7f3c8	-0.082007945
41	0x3debafd6	0.115081474
42	0x3ec6cc5e	0.38827795
43	0x3effdd3b	0.49973473
44	0x3e5095f6	0.20369706
45	0x3e8af657	0.27141067
46	0x3df9ee3d	0.122036435
47	0x3e2c5416	0.16828951
48	0x3ef8ad58	0.4856975
49	0x3b95598b	0.0045577935
50	0xb70967bf	-8.189992e-06
51	0x3e4ecd74	0.20195562
52	0x3d840071	0.06445397
53	0xbd99b1ad	-0.07504592
54	0x3f36e885	0.71448547
55	0x3e00c37c	0.12574571
56	0xbccd9398	-0.025094792
57	0x3e90b24a	0.28261024
58	0x3ed0016e	0.4062609
59	0x3c4f0dd2	0.012637572
60	0xb72a6fee	-1.015885e-05
61	0xb6c140a7	-5.7593747e-06
62	0x3f1d170b	0.61363286
63	0xbd5203e2	-0.051273234
64	0xbc0b19f9	-0.008490079
65	0xba934eca	-0.0011238691
66	0xbbd14c43	-0.006387265
67	0xbdec2013	-0.11529555
68	0xbe18d1ad	-0.14923735
69	0x3caa358b	0.020777484
70	0xbc5d419b	-0.013504411
71	0x3a97ee9d	0.0011591498
72	0x3e26fe66	0.16307983
73	0xbcb6cb0d	-0.022313619
74	0x3cb60998	0.022221372
75	0x3d12f6a5	0.03587975
76	0x3daae7d6	0.083450004
77	0x3de40cb8	0.111352384
78	0xbd60d4ee	-0.054890566
79	0x3e865391	0.2623563
80	0x3e56b3eb	0.20967071
81	0xbbf9a63f	-0.007618695
82	0xbbb375ac	-0.005476674
83	0xbea0d16d	-0.3140978
84	0xbc643e9e	-0.013930945
85	0xbd87b8a4	-0.06627014
86	0xbd69b55b	-0.05705772
87	0xbc329308	-0.010899313
88	0xbd9fa3eb	-0.07794937
89	0x3db107e5	0.08644084
90	0x3e88bbc9	0.2670577
91	0x3a9ee432	0.0012122451
92	0xba690ae5	-0.0008889868
93	0xbb8862b5	-0.0041621574
94	0xbd92a652	-0.07160629
95	0xbe965bbf	-0.29366872
96	0x3ee79851	0.45233396
97	0xb6adb9fc	-5.177453e-06
98	0x3a2a15ba	0.0006488223
99	0x3e92da19	0.2868202
100	0x3f66aa7d	0.90103894
101	0x3e0bd27c	0.13654512
102	0x3cf85302	0.030313019
103	0x36c58ea6	5.887664e-06
104	0x3e273d72	0.16332033
105	0x3c63eb55	0.013911088
106	0x3f0aa29f	0.5415439
107	0x3e3fd42b	0.1873328
108	0x3dbd3684	0.09238914
109	0x3e8c6a3f	0.2742481
110	0xbd2b8868	-0.041878134
111	0x3ee1af61	0.44079116
112	0x3d873f94	0.066039234
113	0x3b2a5cb2	0.0025995192
114	0xb5d949d3	-1.6189246e-06
115	0x3ecb9395	0.39761034
116	0x3cb9e44d	0.02269187
117	0x3e497d0b	0.19676606
118	0x3ea82050	0.32837152
119	0x3d964f77	0.073393755
120	0x3e38f272	0.18061236
121	0x3d50b290	0.05095154
122	0x3e303317	0.17206989
123	0x3c01dee6	0.007926678
124	0xb6ccba86	-6.101388e-06
125	0xb7302852	-1.0499805e-05
126	0x3e9667b9	0.2937601
127	0x3ef2d9b5	0.47431722

pos_encoder.lstm.weight_ih_l1 f4 [128, 32]
0	0xb39d3840	-7.321114e-08
1	0x2e044bd2	3.0080667e-11
2	0x2fac3ca4	3.1329705e-10
3	0x33272fbe	3.892614e-08
4	0xb4915c75	-2.7075626e-07
5	0xb3488bc8	-4.669326e-08
6	0x33274fac	3.895518e-08
7	0x2f1b9a84	1.4152063e-10
8	0xb40c45bb	-1.3063884e-07
9	0xb2deccaf	-2.593728e-08
10	0xb371292b	-5.6149627e-08
11	0xb29a0991	-1.793231e-08
12	0xb2ded7fb	-2.5942418e-08
13	0xb30f9df6	-3.3438447e-08
14	0x334ea767	4.8115364e-08
15	0x3510b5c2	5.390867e-07
16	0xb30524a7	-3.099981e-08
17	0x2fd90f7d	3.9483075e-10
18	0xae9a2b8c	-7.010845e-11
19	0x326f4944	1.392829e-08
20	0xb3154cef	-3.4761737e-08
21	0x33a84b9d	7.8368636e-08
22	0xb26530bb	-1.3340634e-08
23	0x32f00661	2.7942578e-08
24	0xb3f5e9ac	-1.1451206e-07
25	0x33a3685b	7.609261e-08
26	0x333326c9	4.171196e-08
27	0x30cf2ff4	1.5074861e-09
28	0x2eaf7146	7.9782e-11
29	0x2e1e9de6	3.6065283e-11
30	0xb25a6dfd	-1.27142785e-08
31	0x34536dff	1.9690923e-07
32	0x3a3e6290	0.0007262612
33	0xb6160aad	-2.2357956e-06
34	0xb7baf60b	-2.22875e-05
35	0x38fe4f41	0.00012126426
36	0xbad6b44a	-0.0016380635
37	0x3a028f3e	0.0004980451
38	0xba675aef	-0.0008825501
39	0x36bd96fb	5.6502154e-06
40	0xba3dfa3b	-0.0007247065
41	0xb901ec2c	-0.0001239038
42	0xb9f7825d	-0.0004720864
43	0xb952e903	-0.00020113964
44	0xb92b856f	-0.00016357539
45	0x38f07a32	0.000114668524
46	0xb94f3c69	-0.00019763563
47	0xba796373	-0.0009513415
48	0x39d2c82a	0.00040203455
49	0x381a9bb2	3.6861464e-05
50	0x36e861d6	6.9255284e-06
51	0xb98e91ab	-0.00027192882
52	0x3a20abb9	0.00061291043
53	0xba811a47	-0.000984975
54	0xb96d73d2	-0.00022645228
55	0xb87aae79	-5.9767135e-05
56	0x3a451362	0.0007517842
57	0x37b75d79	2.1858827e-05
58	0x37bb3ad7	2.2319537e-05
59	0x389a41fd	7.3555835e-05
60	0x36583260	3.221583e-06
61	0xb67ce203	-3.7682482e-06
62	0x39d2250c	0.00040081923
63	0xb9d77253	-0.00041093174
64	0x3c095f71	0.008384571
65	0x35156d1e	5.566561e-07
66	0xb94ebc87	-0.00019715923
67	0x3ad133ff	0.0015960931
68	0xbbb430c2	-0.0054989764
69	0x3a65fcc5	0.00087733223
70	0x3b616c8b	0.0034396972
71	0x38a88855	8.036258e-05
72	0x39da13e6	0.00041595026
73	0xbb8686cd	-0.004105425
74	0x3c051fcb	0.008125256
75	0x3b84810d	0.0040437044
76	0xba98a6f3	-0.0011646434
77	0xbc64a997	-0.013956449
78	0xbb258065	-0.002525353
79	0x3b0dbaf2	0.002162632
80	0xbb899e0b	-0.0041997484
81	0xb8b1a678	-8.471025e-05
82	0x37da26e5	2.6005737e-05
83	0x3bbfe313	0.005855927
84	0x3b683c2e	0.003543626
85	0xbc264aeb	-0.010149698
86	0x3c36d09e	0.011158137
87	0xbabb1c83	-0.0014275465
88	0xbb049c78	-0.0020234864
89	0x3aac6a3b	0.0013154218
90	0x3be0d83e	0.0068617156
91	0xba2ccdd3	-0.00065919495
92	0x381b4a2b	3.7023954e-05
93	0xb75a6641	-1.301762e-05
94	0x3ba97fe7	0.005172718
95	0x3adad618	0.0016695885
96	0xb3992195	-7.130726e-08
97	0x2ee0a91d	1.0216381e-10
98	0x2f117f65	1.3232933e-10
99	0x33c8772e	9.3349044e-08
100	0xb4b4dbab	-3.3687442e-07
101	0xb3b00ea5	-8.1983025e-08
102	0x32bfabc8	2.2313444e-08
103	0x2f3b8812	1.7055893e-10
104	0xb40b664a	-1.2982596e-07
105	0xb2ff4fc2	-2.9722177e-08
106	0xb2d0b1c8	-2.4295232e-08
107	0xb3231b8c	-3.797645e-08
108	0xb2a3f882	-1.9088706e-08
109	0xb3d8efe2	-1.0101918e-07
110	0x3324f655	3.8408263e-08
111	0x352f3c2a	6.528013e-07
112	0xb3146a57	-3.455565e-08
113	0x307c2e9a	9.174329e-10
114	0x2d5e25a3	1.2627596e-11
115	0x32e62707	2.6793272e-08
116	0xb32c5a4a	-4.0128988e-08
117	0x33c2f283	9.0779416e-08
118	0xb168e9d7	-3.3893366e-09
119	0x330a08ae	3.2138523e-08
120	0xb3e593e8	-1.06905475e-07
121	0x338459aa	6.163039e-08
122	0x3343208c	4.5431577e-08
123	0x30e79606	1.6850101e-09
124	0x2eabe782	7.817304e-11
125	0x2f15fa08	1.36403e-10
126	0x30de1e2c	1.6161201e-09
127	0x343986aa	1.7278458e-07
128	0xb3f8e6d7	-1.15903894e-07
129	0xadffd799	-2.9085888e-11
130	0x30ef6073	1.7416951e-09
131	0x340465d4	1.2330503e-07
132	0xb50880b4	-5.0851236e-07
133	0xb3bf2366	-8.9005695e-08
134	0x3387b6a2	6.319648e-08
135	0xac8342b1	-3.730648e-12
136	0xb476dc8f	-2.2990774e-07
137	0xb2853c32	-1.5510611e-08
138	0xb46cd4e9	-2.2056669e-07
139	0x32edc993	2.7682097e-08
140	0xb3133990	-3.4278457e-08
141	0xb333a73c	-4.1828784e-08
142	0x33caeaa8	9.449042e-08
143	0x356d6f9e	8.8451804e-07
144	0xb307416d	-3.149164e-08
145	0xb0af4b39	-1.2754305e-09
146	0xaef5ad82	-1.1172131e-10
147	0xb2ac15f7	-2.0033424e-08
148	0xb396c650	-7.020992e-08
149	0x34086497	1.2702581e-07
150	0xb2e8a6f8	-2.7084283e-08
151	0x33322dc0	4.1485464e-08
152	0xb46685a2	-2.1469035e-07
153	0x34207465	1.4943505e-07
154	0x33b4dd31	8.422138e-08
155	0x314bccc4	2.9656784e-09
156	0x2dcdee75	2.3411698e-11
157	0xaebf5ef3	-8.702541e-11
158	0xb2ffb632	-2.976876e-08
159	0x34b7e4f4	3.4252992e-07
160	0x385d904a	5.2824886e-05
161	0xb46fe501	-2.234192e-07
162	0xb42fa596	-1.6358385e-07
163	0x38801d23	6.108943e-05
164	0xb976db0d	-0.00023541991
165	0x37067fdd	8.016793e-06
166	0xb908ae5e	-0.00013034928
167	0xb312f59e	-3.421666e-08
168	0xb9207cfb	-0.00015305348
169	0x376e42ed	1.4201488e-05
170	0xb80cf309	-3.3604945e-05
171	0x37406a55	1.1468849e-05
172	0xb6f00e49	-7.1542204e-06
173	0x373c8bcd	1.1238223e-05
174	0xb73501b7	-1.078884e-05
175	0xb98abd18	-0.00026462297
176	0x38776f93	5.89933e-05
177	0x3608befd	2.037675e-06
178	0x33cc612c	9.517166e-08
179	0xb547ca39	-7.442755e-07
180	0xb779d379	-1.4890794e-05
181	0x3594fcaa	1.1100394e-06
182	0xb7f19ed1	-2.8803393e-05
183	0xb8321e79	-4.2466887e-05
184	0x3826bb90	3.9752165e-05
185	0xb72c80d1	-1.0281991e-05
186	0xb556fc55	-8.0088404e-07
187	0x36d754a0	6.417351e-06
188	0xb34cd27c	-4.7688886e-08
189	0xb48aedf5	-2.587764e-07
190	0x37e8cff6	2.7753395e-05
191	0xb72f20ac	-1.043842e-05
192	0x3b5e7aa7	0.0033947618
193	0xb6a87d2f	-5.0213634e-06
194	0xb8d13247	-9.9752615e-05
195	0xb91a7cec	-0.00014733121
196	0xb781bc12	-1.5465575e-05
197	0x3a0bb023	0.00053286756
198	0xbb06fdac	-0.0020597978
199	0x3819353a	3.6527614e-05
200	0xbb9154a8	-0.0044351406
201	0xbaa15fcd	-0.0012311876
202	0x399b5f7e	0.0002963505
203	0xbb17171f	-0.0023054553
204	0xba002a2f	-0.00048890983
205	0x3a6f3bde	0.00091260474
206	0x3a41a4ae	0.0007386905
207	0xbc24543d	-0.01002985
208	0x3adc2d40	0.0016798154
209	0x38a8885e	8.0362646e-05
210	0x381c4103	3.7253845e-05
211	0xbaa85fd2	-0.001284594
212	0x3b68eca8	0.0035541449
213	0xbb846d68	-0.0040413626
214	0xba8027e0	-0.0009777509
215	0x39bf4e17	0.0003648854
216	0x3b40891f	0.0029378606
217	0x3ae2788c	0.0017278357
218	0x3a9cea27	0.0011971638
219	0x38c05e41	9.1728296e-05
220	0x37c4b1a8	2.3447748e-05
221	0xb7744d39	-1.4561513e-05
222	0x3ae5d3a1	0.0017534384
223	0xbaabf161	-0.0013118201
224	0x3b804d6d	0.00391548
225	0xb6ef90a3	-7.139593e-06
226	0xb93eabb0	-0.0001818377
227	0x3b2ed809	0.002667906
228	0x3cba46b5	0.022738794
229	0x3b5cf1cb	0.0033713456
230	0x3be62e9a	0.0070245983
231	0x3883bb3b	6.281441e-05
232	0x3b42f5ad	0.0029748485
233	0xbb5660c2	-0.003271148
234	0x3bcf8263	0.006332682
235	0x3aa5acae	0.0012639964
236	0x3b5d20c5	0.0033741456
237	0xbbc246d7	-0.005928855
238	0xba970b9c	-0.0011523846
239	0xbbbf1f18	-0.005832564
240	0xba936436	-0.0011245075
241	0x39efc937	0.0004573555
242	0x37b2361f	2.1244456e-05
243	0x3bb615ff	0.0055568214
244	0x3b33bc14	0.0027425336
245	0xbae137f4	-0.0017182813
246	0xbab8c031	-0.0014095363
247	0xbaa041ac	-0.0012226603
248	0x3bc92422	0.0061383406
249	0xba8ee24e	-0.0010901184
250	0x3b80b0ee	0.0039273417
251	0x3a5b50c8	0.00083662244
252	0x37d5151c	2.5401408e-05
253	0xb7890fc8	-1.6339021e-05
254	0xb9c33827	-0.00037235135
255	0xbb1e13d8	-0.0024120715

pos_encoder.lstm.weight_hh_l1 f4 [128, 32]
0	0x2e4a0ea8	4.59425e-11
1	0xb0aca9b2	-1.2562877e-09
2	0xb22e21a3	-1.0135781e-08
3	0x2e500ea9	4.7306745e-11
4	0xae25cf16	-3.7700586e-11
5	0x2ee54ce4	1.0427373e-10
6	0x303a774d	6.783594e-10
7	0xb20b4b52	-8.107991e-09
8	0x3195ae70	4.356302e-09
9	0x2f8a708f	2.5182031e-10
10	0xad7ab34b	-1.4250666e-11
11	0x2e38d07d	4.202193e-11
12	0x2e830cdb	5.959474e-11
13	0x30a12a4d	1.1726314e-09
14	0xae4d1b30	-4.663575e-11
15	0xae447abc	-4.467425e-11
16	0xaebcd744	-8.587489e-11
17	0x314ae7aa	2.9526555e-09
18	0xae495fbe	-4.5787145e-11
19	0x302ffd38	6.4024475e-10
20	0xb09203db	-1.0623994e-09
21	0xae13faa6	-3.364655e-11
22	0xae47445a	-4.530807e-11
23	0x320ea41d	8.302803e-09
24	0xb078a7c2	-9.046027e-10
25	0x2e36b9f1	4.1547158e-11
26	0x30b1cd4d	1.2936795e-09
27	0xae2bde87	-3.9078542e-11
28	0xafa8dc9b	-3.0715772e-10
29	0xae3b24ff	-4.2551736e-11
30	0xb1db7c7c	-6.387891e-09
31	0xadd6c123	-2.4414753e-11
32	0x34bbe3ff	3.4997353e-07
33	0x36e3084d	6.7660935e-06
34	0x3851c61a	5.001398e-05
35	0x349795bf	2.8234896e-07
36	0xb507b85f	-5.0559714e-07
37	0x36dbf8c8	6.5556706e-06
38	0xb7d5432f	-2.5422863e-05
39	0x36d62ec3	6.3831408e-06
40	0x37fa145b	2.9811801e-05
41	0x37b5aa6a	2.1656237e-05
42	0x33dfba62	1.04181495e-07
43	0x34d5f620	3.985342e-07
44	0x34ad510d	3.2282733e-07
45	0xb7015269	-7.708187e-06
46	0xb47604b0	-2.291224e-07
47	0xb483cea5	-2.4551005e-07
48	0x39320a7a	0.00016979306
49	0xb40102d0	-1.2015084e-07
50	0xb4bf53d0	-3.5637504e-07
51	0xb7c429b6	-2.3384444e-05
52	0x370b79dd	8.313419e-06
53	0xb4dc4e5b	-4.1035204e-07
54	0xb46f8a3c	-2.2308899e-07
55	0xb8cc8ccd	-9.753704e-05
56	0xb7ffedf4	-3.0509174e-05
57	0x35338d46	6.6888276e-07
58	0x37c912fc	2.3969907e-05
59	0x34a18426	3.0084738e-07
60	0xb752d1e7	-1.2565847e-05
61	0xb5137e3a	-5.494545e-07
62	0xb7919ad1	-1.7357439e-05
63	0xb411b56f	-1.3570182e-07
64	0x3642df62	2.9038279e-06
65	0xb869323a	-5.5598306e-05
66	0x3a16991c	0.0005744861
67	0xb65aa0af	-3.2578062e-06
68	0xb6e2f457	-6.7637698e-06
69	0xb7413adb	-1.15174e-05
70	0x398dd017	0.00027048655
71	0x39e89450	0.0004436099
72	0xb913d0c0	-0.00014096778
73	0x39934605	0.00028090194
74	0x3673ce76	3.6329998e-06
75	0x36d10a34	6.229873e-06
76	0x368a46db	4.120969e-06
77	0x3901ac64	0.00012366619
78	0x3456608a	1.9965424e-07
79	0xb64ce9e9	-3.0534522e-06
80	0x39f9f3f1	0.00047674731
81	0xb9d68aa1	-0.00040920547
82	0xb655e906	-3.187511e-06
83	0xb9b2986a	-0.00034064363
84	0xb930e3a4	-0.0001686947
85	0xb6ae080f	-5.1865422e-06
86	0xb6420693	-2.891208e-06
87	0xba8e5bef	-0.0010861139
88	0x3926be6f	0.00015901936
89	0x36e7254d	6.888679e-06
90	0x391eabcd	0.00015132055
91	0xb5d8ef17	-1.6162838e-06
92	0xb7ffeb5b	-3.0507965e-05
93	0xb72f7a88	-1.0459342e-05
94	0x3a11682d	0.00055468344
95	0xb54567ad	-7.3539087e-07
96	0x2e4b818b	4.6271913e-11
97	0xb0686f50	-8.4559293e-10
98	0xb1a4ea3e	-4.7996584e-09
99	0x2e78cefb	5.6572507e-11
100	0xade41ae0	-2.5932534e-11
101	0x2ecb63d4	9.249104e-11
102	0xafd16571	-3.8088957e-10
103	0xb1e6ba3f	-6.7150547e-09
104	0x311fe244	2.3266162e-09
105	0xb11d2bb9	-2.287136e-09
106	0xad7f56ba	-1.4514329e-11
107	0x2e1226e0	3.3231085e-11
108	0x2e6e5b42	5.4195988e-11
109	0x303e6800	6.926939e-10
110	0xae661648	-5.2315735e-11
111	0xae46058e	-4.502492e-11
112	0x30d75499	1.5667353e-09
113	0x31b64d6c	5.305699e-09
114	0xae48c984	-4.5653717e-11
115	0x3152ed33	3.0693854e-09
116	0xb000c711	-4.684902e-10
117	0xadbe937f	-2.1666e-11
118	0xae495f69	-4.578685e-11
119	0xb2618c75	-1.312866e-08
120	0x2f5cf225	2.009491e-10
121	0x2e029a4a	2.9695614e-11
122	0xb091be67	-1.0604254e-09
123	0xae20ba12	-3.654505e-11
124	0xaf58c8d2	-1.9716431e-10
125	0xae06aa8d	-3.0619552e-11
126	0xb17006de	-3.49285e-09
127	0xada54f55	-1.8793559e-11
128	0x2e53ce82	4.815926e-11
129	0xb1203f20	-2.3318947e-09
130	0xb2c72cf0	-2.3187084e-08
131	0x2e4334e7	4.4384853e-11
132	0xae4a7720	-4.6035287e-11
133	0xaf38f3e3	-1.6821348e-10
134	0x31108304	2.1029232e-09
135	0xb2a1dc82	-1.8843142e-08
136	0x323e68e3	1.1083304e-08
137	0x31505821	3.031808e-09
138	0xac9a81e1	-4.3913627e-12
139	0x2e4d9c2c	4.6750312e-11
140	0x2e9e9c70	7.212797e-11
141	0x3135278e	2.636145e-09
142	0xae48840a	-4.559201e-11
143	0xae4eeb4a	-4.7047956e-11
144	0xb11b7775	-2.2623372e-09
145	0x3115778f	2.1750315e-09
146	0xae542b59	-4.824172e-11
147	0xb0d8ca1d	-1.5773512e-09
148	0xb1334994	-2.6089753e-09
149	0xae2f4f26	-3.986069e-11
150	0xae5026f8	-4.7328336e-11
151	0x335b3296	5.103592e-08
152	0xb1a55217	-4.8114646e-09
153	0x2e5cac1d	5.0175076e-11
154	0x319d3a71	4.5759454e-09
155	0xae277ca8	-3.808212e-11
156	0xaf0b8292	-1.2688364e-10
157	0xae56ada2	-4.8812183e-11
158	0xb28e7ef9	-1.6588716e-08
159	0xaded058d	-2.6946246e-11
160	0x32da761c	2.543225e-08
161	0xb594b7f2	-1.1080394e-06
162	0x3702afcb	7.789534e-06
163	0x331578a3	3.4801484e-08
164	0xb2b43c10	-2.0982071e-08
165	0x34e246fb	4.2147425e-07
166	0x354dd61a	7.668001e-07
167	0xb6df6078	-6.6571483e-06
168	0xb6c80e59	-5.9621348e-06
169	0xb632305a	-2.6552211e-06
170	0xb292d001	-1.7091226e-08
171	0x322903a0	9.837919e-09
172	0xb2f094e0	-2.8007378e-08
173	0x35adb7d6	1.2943008e-06
174	0xb2eab81b	-2.7324907e-08
175	0xb2c2cf58	-2.2678861e-08
176	0xb5f88af0	-1.8517876e-06
177	0x35593f7a	8.093117e-07
178	0xb2d673d9	-2.496556e-08
179	0x3629637a	2.5240865e-06
180	0xb5946f95	-1.1059334e-06
181	0xb29b8a4f	-1.810727e-08
182	0xb2b663fc	-2.1233056e-08
183	0x379157b5	1.7326189e-05
184	0xb44db38a	-1.9157429e-07
185	0x32e3e6dd	2.6531263e-08
186	0xb64d16ad	-3.056058e-06
187	0x329486c1	1.7290747e-08
188	0xb55c31d5	-8.20289e-07
189	0x31a70644	4.861052e-09
190	0x367eaaeb	3.7948437e-06
191	0xb2721ec6	-1.4093251e-08
192	0x3618b9e9	2.275798e-06
193	0x37aa07e3	2.0269252e-05
194	0x3952ad8b	0.0002009181
195	0x35f1aa84	1.8005526e-06
196	0xb6415b9f	-2.8812572e-06
197	0x37884b74	1.6247599e-05
198	0xb823c1ec	-3.9042832e-05
199	0x38b95e4b	8.839051e-05
200	0x391c3a42	0.00014899022
201	0x39077974	0.00012919848
202	0x355ff527	8.343072e-07
203	0x361bd513	2.3220825e-06
204	0x360bf320	2.0854131e-06
205	0xb7ba13bb	-2.2182116e-05
206	0xb5d1f773	-1.5643731e-06
207	0xb5e1ac2c	-1.6813915e-06
208	0x3a69762a	0.00089058524
209	0xb868d2be	-5.550938e-05
210	0xb61b5dd8	-2.3151424e-06
211	0xb912558b	-0.00013955512
212	0x379abbf3	1.8445751e-05
213	0xb6095a35	-2.0467098e-06
214	0xb5cc0905	-1.520181e-06
215	0xbab26fda	-0.0013613657
216	0xb8e47e53	-0.00010895417
217	0x3677ada3	3.6906938e-06
218	0x3927624b	0.00015962978
219	0x36126306	2.1813335e-06
220	0xb85d69af	-5.278893e-05
221	0xb68824b0	-4.057387e-06
222	0xb74fa3f7	-1.23763375e-05
223	0x342bf7de	1.601579e-07
224	0x357e326d	9.469575e-07
225	0x39384398	0.00017572788
226	0x39980190	0.00028992863
227	0xb53bdf3f	-6.9987794e-07
228	0xb5aa9fc9	-1.2712491e-06
229	0xb8b97b1c	-8.844418e-05
230	0x386cf0b1	5.6490946e-05
231	0x3a8ea113	0.0010881744
232	0xb9e32c95	-0.0004333003
233	0x39e0a209	0.00042845335
234	0x35a0b1cc	1.1972675e-06
235	0x342e5f33	1.6239646e-07
236	0xb654fe92	-3.1738641e-06
237	0xb9055164	-0.00012714189
238	0xb3b4fe5f	-8.428173e-08
239	0xb5807f8c	-9.573864e-07
240	0xb9cffb6c	-0.0003966944
241	0xb9e07e64	-0.00042818778
242	0xb586707e	-1.0016518e-06
243	0xb9f9ec25	-0.00047668922
244	0x38b319cc	8.54019e-05
245	0xb283928b	-1.5317047e-08
246	0xb53799c4	-6.839657e-07
247	0xbb8c8963	-0.0042888387
248	0x39300fbd	0.00016790531
249	0x351783ad	5.6443497e-07
250	0x39d65cd9	0.00040886438
251	0x3688223d	4.0571017e-06
252	0x38d315e8	0.000100653444
253	0xb673d7e8	-3.6335496e-06
254	0x3a3c9fc1	0.0007195436
255	0x3658720d	3.2252894e-06

pos_encoder.lstm.bias_ih_l1 f4 [128]
0	0xb5893491	-1.0222594e-06
1	0xbaea290b	-0.0017865015
2	0x3c8425f0	0.016131371
3	0xb59336d3	-1.0968309e-06
4	0xb5dd83e8	-1.6504173e-06
5	0x394a50db	0.00019294342
6	0x3b56688e	0.0032716128
7	0x3c684441	0.014176429
8	0x3c9ee0ab	0.01939424
9	0x3becbe8a	0.0072248625
10	0xb4fb5cab	-4.6819818e-07
11	0xb5e7e1ff	-1.7276615e-06
12	0xb5d84e08	-1.6115964e-06
13	0xbbc15034	-0.0058994535
14	0xb581b69b	-9.664394e-07
15	0xb5818ba7	-9.651893e-07
16	0x3d32e12b	0.04367177
17	0x3c242cdb	0.01002046
18	0xb58ac249	-1.0338346e-06
19	0x3c00f002	0.007869722
20	0xbbc32dd8	-0.0059563927
21	0xb5da27f7	-1.6253897e-06
22	0xb581029e	-9.612011e-07
23	0xbea74915	-0.32672945
24	0x3bd9817f	0.0066377516
25	0xb5e42881	-1.6999112e-06
26	0x3b86698f	0.004101939
27	0xb53a57dd	-6.941826e-07
28	0x3a1cb850	0.00059783924
29	0xb60b5822	-2.0763914e-06
30	0x3c413a9d	0.01179376
31	0xb532d333	-6.66175e-07
32	0xb579d08c	-9.3063204e-07
33	0xba9d3c3e	-0.0011996103
34	0x3cc3f019	0.023918198
35	0xb58a6a55	-1.0312748e-06
36	0xb5d5c123	-1.5925947e-06
37	0x38060d30	3.196037e-05
38	0x3bb95b87	0.005656663
39	0x3c83b62f	0.016078083
40	0x3cf93ba9	0.030423956
41	0x3c30c806	0.010789877
42	0xb4db4697	-4.084329e-07
43	0xb5dbdb10	-1.6380527e-06
44	0xb5e13072	-1.6777906e-06
45	0xbb893327	-0.004187006
46	0xb56d3c6b	-8.83773e-07
47	0xb56ce3f2	-8.8248555e-07
48	0x3d609a17	0.05483445
49	0x3c5000bc	0.012695488
50	0xb57d1baf	-9.429013e-07
51	0x3c3f7e8d	0.011687887
52	0xbb826c87	-0.0039802226
53	0xb5cfb108	-1.5474225e-06
54	0xb56afce4	-8.75398e-07
55	0x3e096ff9	0.1342162
56	0x3bfae7a7	0.0076570096
57	0xb5d8b58f	-1.6146095e-06
58	0x3bec0172	0.0072023207
59	0xb5292051	-6.300443e-07
60	0x39c40659	0.00037388763
61	0xb609d71d	-2.0539803e-06
62	0x3cd396f9	0.025828825
63	0xb51be287	-5.807164e-07
64	0x38888aca	6.510837e-05
65	0x39de4ffc	0.00042402733
66	0xbc852e68	-0.01625748
67	0xb9c0df6d	-0.0003678756
68	0x3a206a71	0.00061193766
69	0x3b4c41d9	0.0031167178
70	0x3c02d25c	0.007984724
71	0x3c226003	0.009910586
72	0xb9b636db	-0.00034754616
73	0x3d03fe1e	0.032224767
74	0x3a2ead28	0.00066633755
75	0x3883d1cf	6.285647e-05
76	0xbac50847	-0.0015032374
77	0xbc388775	-0.011262764
78	0xbaedd8df	-0.0018146298
79	0xba0fa05a	-0.00054789113
80	0xbbeefa7e	-0.0072930446
81	0x3b249e7b	0.0025118876
82	0x38759bcb	5.8557645e-05
83	0x3c847baf	0.016172258
84	0xbb98a38b	-0.0046581677
85	0xba0dd22c	-0.0005410041
86	0x3a6487a1	0.000871772
87	0x3d339318	0.04384145
88	0x3bb14512	0.005409845
89	0xba83fcf1	-0.0010069889
90	0x3c4ecd07	0.0126221245
91	0x3a2ee4d3	0.00066716707
92	0x3b8dff11	0.004333385
93	0x385249e0	5.0136703e-05
94	0x3abfa4ac	0.001462122
95	0x3a73c89d	0.0009299608
96	0xb5404992	-7.163263e-07
97	0x3bd09fa0	0.006366685
98	0x3d9752b7	0.073888235
99	0xb54b9194	-7.5835237e-07
100	0xb59be2d0	-1.1614411e-06
101	0x3a75494c	0.00093569304
102	0x3d275024	0.040847912
103	0x3dafc022	0.08581568
104	0x3daf8261	0.0856979
105	0x3d3d4abc	0.04621385
106	0xb4b760cd	-3.4156838e-07
107	0xb5a1eb0c	-1.2063842e-06
108	0xb59effa0	-1.1846314e-06
109	0x3c12b65f	0.0089546135
110	0xb534816b	-6.7243553e-07
111	0xb535803c	-6.761436e-07
112	0x3ddd30ce	0.108003244
113	0x3da0dd4a	0.078547075
114	0xb54297fc	-7.24918e-07
115	0x3d5f48b9	0.054512713
116	0x3c4a9d31	0.012366579
117	0xb59a8a2c	-1.1514107e-06
118	0xb5353669	-6.750693e-07
119	0xbdbd6f69	-0.092497654
120	0x3d422452	0.04739792
121	0xb5a3123b	-1.2149752e-06
122	0x3d24034f	0.040042218
123	0xb5131dd1	-5.4805156e-07
124	0x3b3c5c65	0.0028741595
125	0xb5c12e8c	-1.4393167e-06
126	0x3d84066f	0.064465396
127	0xb50a6d2f	-5.156789e-07

pos_encoder.lstm.bias_hh_l1 f4 [128]
0	0xb5893491	-1.0222594e-06
1	0xbaea290b	-0.0017865015
2	0x3c8425f0	0.016131371
3	0xb59336d3	-1.0968309e-06
4	0xb5dd83e8	-1.6504173e-06
5	0x394a50db	0.00019294342
6	0x3b56688e	0.0032716128
7	0x3c684441	0.014176429
8	0x3c9ee0ab	0.01939424
9	0x3becbe8a	0.0072248625
10	0xb4fb5cab	-4.6819818e-07
11	0xb5e7e1ff	-1.7276615e-06
12	0xb5d84e08	-1.6115964e-06
13	0xbbc15034	-0.0058994535
14	0xb581b69b	-9.664394e-07
15	0xb5818ba7	-9.651893e-07
16	0x3d32e12b	0.04367177
17	0x3c242cdb	0.01002046
18	0xb58ac249	-1.0338346e-06
19	0x3c00f002	0.007869722
20	0xbbc32dd8	-0.0059563927
21	0xb5da27f7	-1.6253897e-06
22	0xb581029e	-9.612011e-07
23	0xbe9d038b	-0.30666766
24	0x3bd9817f	0.0066377516
25	0xb5e42881	-1.6999112e-06
26	0x3b86698f	0.004101939
27	0xb53a57dd	-6.941826e-07
28	0x3a1cb850	0.00059783924
29	0xb60b5822	-2.0763914e-06
30	0x3c413a9d	0.01179376
31	0xb532d333	-6.66175e-07
32	0xb579d08c	-9.3063204e-07
33	0xba9d3c3e	-0.0011996103
34	0x3cc3f019	0.023918198
35	0xb58a6a55	-1.0312748e-06
36	0xb5d5c123	-1.5925947e-06
37	0x38060d30	3.196037e-05
38	0x3bb95b87	0.005656663
39	0x3c83b62f	0.016078083
40	0x3cf93ba9	0.030423956
41	0x3c30c806	0.010789877
42	0xb4db4697	-4.084329e-07
43	0xb5dbdb10	-1.6380527e-06
44	0xb5e13072	-1.6777906e-06
45	0xbb893327	-0.004187006
46	0xb56d3c6b	-8.83773e-07
47	0xb56ce3f2	-8.8248555e-07
48	0x3d609a17	0.05483445
49	0x3c5000bc	0.012695488
50	0xb57d1baf	-9.429013e-07
51	0x3c3f7e8d	0.011687887
52	0xbb826c87	-0.0039802226
53	0xb5cfb108	-1.5474225e-06
54	0xb56afce4	-8.75398e-07
55	0x3e2e7793	0.17037801
56	0x3bfae7a7	0.0076570096
57	0xb5d8b58f	-1.6146095e-06
58	0x3bec0172	0.0072023207
59	0xb5292051	-6.300443e-07
60	0x39c40659	0.00037388763
61	0xb609d71d	-2.0539803e-06
62	0x3cd396f9	0.025828825
63	0xb51be287	-5.807164e-07
64	0xb8945a13	-7.0739676e-05
65	0x3b09fe5d	0.0021056153
66	0x3d129afa	0.03579233
67	0x39c4c8b2	0.00037533563
68	0xba0f1fe3	-0.00054597686
69	0xbbc373b7	-0.005964722
70	0xbbf86329	-0.00758018
71	0xbb601b7d	-0.0034196072
72	0xbc235394	-0.009968657
73	0xbd206e1f	-0.03916752
74	0xba39f1a4	-0.0007093197
75	0xb8abfa3c	-8.200525e-05
76	0x3abd51a9	0.0014443892
77	0x3c2357e2	0.009969683
78	0x3aebb044	0.0017981608
79	0x3a0e280b	0.0005422837
80	0x3885a1d3	6.372076e-05
81	0xbb45f41a	-0.003020531
82	0xb85a70cd	-5.2080304e-05
83	0xbc24827d	-0.010040876
84	0x3bb209e5	0.0054333084
85	0x3a1f76cf	0.00060830725
86	0xba657071	-0.0008752412
87	0x3c6894f4	0.014195669
88	0xb9c740cd	-0.00038004518
89	0x3a710018	0.00091934344
90	0xbcb62da1	-0.022238554
91	0xba2cbad4	-0.0006589119
92	0xba079627	-0.0005172216
93	0xb81db3d3	-3.759919e-05
94	0x3c34745a	0.0110140685
95	0xba5f6e46	-0.0008523207
96	0xb5404992	-7.163263e-07
97	0x3bd09fa0	0.006366685
98	0x3d9752b6	0.07388823
99	0xb54b9194	-7.5835237e-07
100	0xb59be2d0	-1.1614411e-06
101	0x3a75494c	0.00093569304
102	0x3d275024	0.040847912
103	0x3dafc022	0.08581568
104	0x3daf8261	0.0856979
105	0x3d3d4abc	0.04621385
106	0xb4b760cd	-3.4156838e-07
107	0xb5a1eb0c	-1.2063842e-06
108	0xb59effa0	-1.1846314e-06
109	0x3c12b65f	0.0089546135
110	0xb534816b	-6.7243553e-07
111	0xb535803c	-6.761436e-07
112	0x3ddd30ce	0.108003244
113	0x3da0dd4a	0.078547075
114	0xb54297fc	-7.24918e-07
115	0x3d5f48b9	0.054512713
116	0x3c4a9d31	0.012366579
117	0xb59a8a2c	-1.1514107e-06
118	0xb5353669	-6.750693e-07
119	0xbdbd69b6	-0.092486784
120	0x3d422452	0.04739792
121	0xb5a3123b	-1.2149752e-06
122	0x3d24034f	0.040042218
123	0xb5131dd1	-5.4805156e-07
124	0x3b3c5c65	0.0028741595
125	0xb5c12e8c	-1.4393167e-06
126	0x3d84066f	0.064465396
127	0xb50a6d2f	-5.156789e-07

pos_decoder.lstm.weight_ih_l0 f4 [128, 2]
0	0x3e2d436f	0.16920255
1	0x3b09fa25	0.0021053639
2	0xb4a555d8	-3.0796105e-07
3	0xb46e781b	-2.2209171e-07
4	0xba9da756	-0.0012028019
5	0xba07343b	-0.0005157624
6	0xb5adae7f	-1.294029e-06
7	0xb88c85ef	-6.700667e-05
8	0xbc8332c3	-0.016015416
9	0x3c83478d	0.016025329
10	0xbea90e8d	-0.33018914
11	0x3e666689	0.22500052
12	0x3e85594e	0.26044697
13	0x3e802c14	0.2503363
14	0xb560bfae	-8.3725433e-07
15	0xb5786087	-9.2527665e-07
16	0x3dc5997e	0.09648417
17	0xbdddf6e8	-0.10838109
18	0x3d2e2d1b	0.042523485
19	0x3e221d52	0.15831497
20	0x3b21d9fe	0.0024696584
21	0x3bbae72e	0.0057038283
22	0x3db5f36b	0.08884319
23	0x3da10efc	0.07864186
24	0x3e6eb1fb	0.23310082
25	0x3e1a0154	0.15039569
26	0x3c09b513	0.008404988
27	0x3bb6044d	0.005554712
28	0xbe8fabf6	-0.28060883
29	0x3ea72063	0.32641897
30	0x3cf11332	0.029428098
31	0x3cc46634	0.023974515
32	0x3e97ba07	0.29634115
33	0x3e052ced	0.13005419
34	0x3b1eae7f	0.0024212894
35	0x3b1169a1	0.0022188204
36	0xb74570d0	-1.1768381e-05
37	0x36c4e235	5.867589e-06
38	0x3e268363	0.16261058
39	0x3e9b655c	0.3035077
40	0x3de6e9a3	0.112750314
41	0x3cdf168b	0.027232429
42	0xba3db49c	-0.0007236691
43	0x39d4fbaa	0.00040623295
44	0x3c0a53d0	0.008442834
45	0x3c0258e4	0.0079557635
46	0x3e63f803	0.22262578
47	0x3df8da62	0.12151028
48	0x3901d3f4	0.00012381357
49	0xb99d35f4	-0.00029985572
50	0x3ee8f566	0.45499724
51	0xbe6b2e61	-0.22966911
52	0xbe8696aa	-0.26286823
53	0xbe3979d2	-0.18112877
54	0x3abc49fc	0.0014365311
55	0xbb38f325	-0.0028221097
56	0xb519181e	-5.7032037e-07
57	0xb52e18fa	-6.4856397e-07
58	0xb4c829b0	-3.7283235e-07
59	0xb49eb247	-2.9559507e-07
60	0x3d25afb3	0.040450763
61	0xbc545e94	-0.012962002
62	0x3e7781f2	0.24170664
63	0x3e5cf68f	0.2157843
64	0xbd21d003	-0.039505016
65	0x3b7d838e	0.003868315
66	0xb5b392ba	-1.3379242e-06
67	0xb5afcfe7	-1.3099024e-06
68	0xb90b6d55	-0.00013296802
69	0x378533c0	1.5878933e-05
70	0xba153f6a	-0.00056933484
71	0xbae26607	-0.0017272838
72	0xbd01462e	-0.03156107
73	0xbda3058e	-0.07960044
74	0xbb83da8c	-0.0040238556
75	0x3eae783b	0.34076104
76	0x3bbce75b	0.0057648844
77	0xbc5bbf6d	-0.013412339
78	0xb52b0b2b	-6.3718716e-07
79	0xb4da31bc	-4.064185e-07
80	0xbd3f7d81	-0.04675055
81	0x3c8d4f1a	0.017249633
82	0xbcf16a7e	-0.029469725
83	0x3c6dfd18	0.014525674
84	0x3cc48748	0.023990288
85	0x3cefcc41	0.0292722
86	0xbdb22c2e	-0.08699833
87	0xbdb067f7	-0.0861358
88	0xbd46de75	-0.048551995
89	0xbda72bb7	-0.08162635
90	0x3c70b521	0.014691622
91	0x3c850c4f	0.01624122
92	0xbce234d5	-0.027613083
93	0x3d19829d	0.03747808
94	0xbdec3439	-0.11533398
95	0xbdee928a	-0.11649044
96	0xbcd58e76	-0.026068907
97	0xbe0e10e4	-0.13873631
98	0x3a21fd68	0.0006179423
99	0x3abce937	0.0014412765
100	0xb69c52d1	-4.6588034e-06
101	0xb617a629	-2.2597471e-06
102	0x3d92db37	0.07170718
103	0x3def9508	0.11698347
104	0x3c269c0f	0.010169043
105	0x3cdaa0d3	0.026688015
106	0x3affc430	0.0019513424
107	0x3bfb7877	0.0076742726
108	0x3de4d0d0	0.1117264
109	0x3c89ec82	0.016836409
110	0xbd25e160	-0.040498137
111	0xbd543d3d	-0.051816214
112	0x39c3c9f4	0.00037343765
113	0x3ae8b99b	0.001775551
114	0x3e364751	0.17800643
115	0xbee9b139	-0.45643023
116	0xbe9d02c9	-0.30666187
117	0xbbca4057	-0.0061722207
118	0xbb019256	-0.001977106
119	0x3a6628dc	0.0008779892
120	0xb54ae7d2	-7.5588207e-07
121	0xb50ebdd6	-5.317537e-07
122	0xb5e2f249	-1.6908826e-06
123	0xb5ee2227	-1.7742321e-06
124	0xbdc99344	-0.09842542
125	0x3cc02e6d	0.023459638
126	0xbda5efd5	-0.08102385
127	0xbde43b18	-0.11144084
128	0xbf5c2145	-0.85988265
129	0x3f0dcc57	0.5538992
130	0xb8ad6145	-8.267401e-05
131	0xb6c8f118	-5.9885315e-06
132	0xbc8d793e	-0.017269727
133	0x3ec677f0	0.3876338
134	0x3d13724d	0.035997678
135	0x3d857239	0.06515927
136	0xbed12240	-0.40846443
137	0x3e8b4c5b	0.27206692
138	0x3f2f2cfe	0.6842803
139	0xbf35ff8b	-0.7109305
140	0x3f337938	0.7010684
141	0x3f2b497c	0.66909003
142	0xb82a4129	-4.0591844e-05
143	0x385201b7	5.00695e-05
144	0x3eff1be2	0.4982596
145	0xbf3978d5	-0.7245
146	0xbe6f295e	-0.23355624
147	0xbf44f80c	-0.7694099
148	0x3c691103	0.014225247
149	0x3c23d0ce	0.009998513
150	0x3dbb14cd	0.09134827
151	0xbf82ce62	-1.0219233
152	0x3f5bb04e	0.85815895
153	0xbf4418f8	-0.766006
154	0xbe8dca1d	-0.27693263
155	0xbe68acdd	-0.22722192
156	0xbf25678c	-0.64611125
157	0x3f3453f8	0.70440626
158	0x3e859d71	0.2609668
159	0x3e218669	0.1577393
160	0xbf68cc56	-0.9093679
161	0xbea18286	-0.31544894
162	0xbefca3ae	-0.49343628
163	0x3d30e828	0.04319015
164	0x3bc3b03c	0.0059719365
165	0x3b0c08c6	0.0021367534
166	0x3ef0b596	0.4701354
167	0x3f696b63	0.91179484
168	0x3f2cbb83	0.6747362
169	0x3e9f4362	0.31106097
170	0x3df667c9	0.12031514
171	0xbe0770b9	-0.13226594
172	0xbd268f73	-0.040664148
173	0xbe39596f	-0.18100522
174	0xbf7ba936	-0.9830507
175	0x3d66a415	0.056308825
176	0x3bfcfc49	0.0077205044
177	0xbc90b92e	-0.017666426
178	0x3f3a4fe2	0.7277814
179	0xbf41c8c0	-0.75696945
180	0xbf401393	-0.7502987
181	0xbd00da2f	-0.031458076
182	0xbf0b1df2	-0.5434257
183	0x3ea49b37	0.3214967
184	0xb8bcb686	-8.998536e-05
185	0x37b38657	2.140102e-05
186	0xb77bdba4	-1.5011905e-05
187	0xb6ac0c35	-5.1274205e-06
188	0xbf4e4925	-0.8058036
189	0x3ed7b5e0	0.42130947
190	0xbf0cfd1b	-0.5507371
191	0xbf53f032	-0.82788384
192	0x3e2d24b8	0.16908538
193	0x3c0a39f5	0.00843667
194	0xb5dceebd	-1.6460759e-06
195	0xb5cdb263	-1.5325608e-06
196	0xbaa37e02	-0.0012473466
197	0xba014d06	-0.0004932437
198	0x3a8fbb2e	0.0010965818
199	0xb9cb7120	-0.00038803462
200	0xbc3ab2fb	-0.011395211
201	0xbcdc7fdd	-0.026916439
202	0xbe871737	-0.263849
203	0x3f1c4e17	0.61056656
204	0x3ea5e962	0.3240462
205	0x3e91036b	0.2832292
206	0xb5c5c6f6	-1.4735549e-06
207	0xb5b2997d	-1.3306704e-06
208	0x3de3601f	0.11102318
209	0xbe3fdb12	-0.18735912
210	0x3d028d86	0.03187325
211	0x3e42da79	0.19028653
212	0x3d4d474e	0.05011683
213	0x3d5ce3ee	0.05392831
214	0x3e1b8860	0.15188742
215	0x3e1d2b57	0.15348564
216	0x3e90bff7	0.28271458
217	0x3e6970b7	0.22796904
218	0x3d0626fc	0.032752022
219	0x3cf1e439	0.02952777
220	0xbf0ecf38	-0.5578494
221	0x3ee480da	0.44629556
222	0xbb9f4d12	-0.0048614824
223	0xbbfe595b	-0.007762117
224	0x3ea2f71c	0.31829154
225	0x3df2ebd4	0.11861387
226	0x3b0d2eef	0.0021542867
227	0x3b4a3871	0.0030856396
228	0xb787bf03	-1.61822e-05
229	0x367f2801	3.8021246e-06
230	0x3e8640f1	0.2622142
231	0x3ebee434	0.3728348
232	0x3df3d179	0.11905188
233	0x3d4f7215	0.050645906
234	0x3af7139f	0.0018850452
235	0x3c09d70d	0.0084130885
236	0xbc4c3e1a	-0.012465978
237	0xbe40a947	-0.18814574
238	0x3e856b02	0.26058203
239	0x3e1218db	0.14267294
240	0x3a59b285	0.00083044945
241	0x3aefa40f	0.0018283146
242	0x3f129f9b	0.5727479
243	0xbeba011b	-0.36328968
244	0xbec9b92c	-0.39399087
245	0xbc9d79df	-0.019223152
246	0x39f90305	0.0004749523
247	0xbb00641c	-0.001959092
248	0xb5b1d52a	-1.3249567e-06
249	0xb59e5603	-1.179695e-06
250	0xb60a71e0	-2.0629886e-06
251	0xb60ae06a	-2.0694229e-06
252	0xbb10ac24	-0.002207526
253	0xbcd442c2	-0.025910739
254	0x3e7a1181	0.2442074
255	0x3e77f828	0.24215758
